best_model_1.pth (torch, 23801 bytes, 6 tensors)

conv.0.weight f4 [16, 3, 3, 3]
-0.116457894 -0.08193323 -0.029085148 0.077677146 0.17538702 -0.038234085 -0.06513408 -0.08546519
-0.020008035 0.014466246 -0.11940817 -0.046702806 -0.066143736 0.027373577 -0.16383064 -0.080539204
0.10115227 -0.19355555 0.177707 -0.19650103 -0.074562214 -0.05865821 -0.017396366 0.033846457
0.1281545 0.10378628 -0.1962458 0.1681076 0.16244827 0.06464113 -0.084778436 0.12162738
-0.20562008 0.0870273 0.008451665 -0.19355893 -0.24678488 -0.3230292 -0.25520766 -0.05391166
-0.2266051 -0.03264808 -0.2915747 -0.3981306 -0.0854197 -0.054787174 -0.33203334 -0.071935035
-0.17744285 -0.036907148 -0.1836322 -0.20274337 -0.3738051 -0.016077636 0.4498685 0.2572907
0.37069568 0.09443337 0.15808307 0.3445245 0.15047464 0.323659 0.21518587 -0.3090299
-0.14052439 -0.2747916 -0.22720574 -0.26699132 -0.26644495 -0.20125775 -0.31157854 -0.24985333
-0.14176884 -0.13214187 -0.035262745 0.07010608 -0.24049379 -0.2595083 -0.15677631 -0.040275235
-0.29349905 -0.20701045 -0.23049669 0.1548254 -0.012719567 -0.071407214 0.028708631 -0.094986536
0.007114806 -0.08146978 0.13508111 -0.004489653 -0.031850956 0.025577579 0.062416445 -0.21993473
-0.17097563 -0.10676424 0.09161517 -0.036846265 -0.069123164 0.13747658 -0.028616257 -0.0903483
-0.1461131 -0.19755864 -0.10869128 0.013791121 -0.017301403 0.29564244 0.20596151 -0.088572636
0.21441598 0.089996345 -0.029140472 0.2115349 0.16004227 0.26868835 0.49339694 0.34803534
0.34287804 0.48679483 0.38323858 0.20619476 0.43468103 0.33315513 -0.5698768 -0.64969724
-0.51804227 -0.603937 -0.5102105 -0.69621253 -0.75693095 -0.4212925 -0.73063254 0.30083677
0.4324471 0.29733595 0.47682002 0.38326213 0.12368523 0.27222306 0.40980232 0.41447154
-0.17734823 -0.11564588 -0.2582423 -0.11883625 0.055303387 0.056735426 -0.19134766 -0.15354419
-0.10335559 -0.18718785 -0.1132516 -0.3961469 -0.4085835 -0.055853132 -0.1736923 -0.30401155
-0.42717287 -0.13778289 -0.27007762 -0.14046675 0.032648392 -0.056372046 -0.07371785 -0.02164512
-0.04846504 -0.09745426 -0.14195555 0.013426684 -0.122926556 -0.06566075 -0.2878467 -0.14907552
-0.22438288 -0.079606496 -0.059020795 0.05399452 0.071289346 -0.22023311 -0.022359926 0.014279781
0.10903101 -0.08451827 0.02164811 0.11922325 0.12613735 0.18699136 0.22433542 0.45932028
0.2648668 0.19768688 0.35214394 0.26031962 0.46968496 0.44855696 -0.5363508 -0.578434
-0.32921064 -0.3919294 -0.5351842 -0.46621162 -0.41237807 -0.3821478 -0.36073518 0.25597504
0.017725399 0.28347117 0.17429407 0.13548072 0.3175639 0.12080217 0.2975721 0.39394975
-0.022837643 0.019617487 0.11889603 -0.150253 -0.21219657 -0.20120543 -0.023994341 -0.1624599
0.08272307 0.01886655 -0.17880295 0.124671005 -0.2042124 0.11961111 -0.036475874 -0.09847629
-0.076944165 -0.13901971 -0.17859596 -0.17065437 -0.1334733 0.06761903 0.06845547 0.036459815
-0.17383699 0.12032548 0.11875449 0.027578855 -0.36893865 0.005109304 -0.4429737 -0.5668529
-0.4275796 -0.69237804 -0.5883261 -0.45216477 0.44196543 0.52872676 0.58552337 0.18408695
00000000: 7a81 eebd 9ccc a7bd fa43 eebc 3215 9f3d
00000010: a898 333e 589b 1cbd 0465 85bd 6008 afbd
00000020: e4e7 a3bc d503 6d3c 458c f4bd 714b 3fbd
00000030: 5e76 87bd 8d3e e03c 38c3 27be bdf1 a4bd
00000040: ec28 cf3d 6d33 46be d3f8 353e 9137 49be
00000050: 13b4 98bd 9743 70bd d382 8ebc 95a2 0a3d
00000060: ef3a 033e e78d d43d a9f4 48be 6624 2c3e
00000070: d758 263e 9262 843d 51a0 adbd c717 f93d
00000080: 128e 52be 5e3b b23d da78 0a3c 5034 46be
00000090: 2db5 7cbe 1564 a5be 94aa 82be 79d2 5cbd
000000a0: 2b0b 68be feb9 05bd 4749 95be c6d7 cbbe
000000b0: 86f0 aebd 8468 60bd 4600 aabe ad52 93bd
000000c0: 94b3 35be f32b 17bd 140a 3cbe f59b 4fbe
000000d0: 6263 bfbe 3fb5 83bc 2a55 e63e 9bbb 833e
000000e0: d3cb bd3e 4866 c13d 87e0 213e 8465 b03e
000000f0: 0616 1a3e a2b6 a53e af59 5c3e 2b39 9ebe
00000100: a0e5 0fbe 7cb1 8cbe 9fa8 68be 16b3 88be
00000110: 796b 88be 8316 4ebe 3987 9fbe 8dd9 7fbe
00000120: da2b 11be 3350 07be ab6f 10bd c793 8f3d
00000130: 0144 76be 46de 84be f889 20be a5f7 24bd
00000140: 8245 96be 8cfa 53be 5307 6cbe 8d8a 1e3e
00000150: bb65 50bc f23d 92bd 5d2e eb3c 4d88 c2bd
00000160: 5223 e93b a1d9 a6bd b452 0a3e f01d 93bb
00000170: 2676 02bd 1288 d13c 63a8 7f3d 9236 61be
00000180: 3c14 2fbe 36a7 dabd bca0 bb3d 1cec 16bd
00000190: 7290 8dbd a9c6 0c3e a46c eabc 8808 b9bd
000001a0: ac9e 15be d04c 4abe 8999 debd 27f4 613c
000001b0: acbb 8dbc 725e 973e 93e7 523e 9265 b5bd
000001c0: dd8f 5b3e 0150 b83d 00b8 eebc 9b9c 583e
000001d0: 1fe2 233e 8591 893e 869e fc3e b031 b23e
000001e0: b68d af3e 2c3d f93e d937 c43e b824 533e
000001f0: 838e de3e 4f93 aa3e 72e3 11bf 8f52 26bf
00000200: 6b9e 04bf 9d9b 1abf 289d 02bf fc3a 32bf
00000210: 3ac6 41bf a7b3 d7be bc0a 3bbf 4707 9a3e
00000220: b569 dd3e 6b3c 983e c121 f43e ef3a c43e
00000230: af4e fd3d d260 8b3e 9cd1 d13e 9d35 d43e
00000240: c69a 35be bfd7 ecbd 5638 84be 6b60 f3bd
00000250: ce85 623d 6863 683d a4f0 43be b03a 1dbe
00000260: 18ac d3bd 2cae 3fbe 74f0 e7bd c4d3 cabe
00000270: db31 d1be 41c6 64bd 65dc 31be 67a7 9bbe
00000280: 67b6 dabe f516 0dbe 9d47 8abe 84d6 0fbe
00000290: 52ba 053d 60e6 66bd 62f9 96bd 1b51 b1bc
000002a0: 4783 46bd 1996 c7bd cc5c 11be 98fb 5b3c
000002b0: ebc0 fbbd 2579 86bd a560 93be 41a7 18be
000002c0: a0c4 65be bb08 a3bd cabf 71bd 5c29 5d3d
000002d0: 2600 923d ca84 61be 2a2c b7bc bef5 693c
000002e0: a64b df3d ea17 adbd 6157 b13c 522b f43d
000002f0: 262a 013e aa7a 3f3e 2fb8 653e 072c eb3e
00000300: 9f9c 873e 6e6e 4a3e 364c b43e 9d48 853e
00000310: 8c7a f03e 42a9 e53e 494e 09bf 4014 14bf
00000320: 4c8e a8be f8aa c8be d501 09bf 4ab3 eebe
00000330: 3823 d3be e0a8 c3be 48b2 b8be 290f 833e
00000340: db34 913c 2223 913e 257a 323e 75bb 0a3e
00000350: bc97 a23e 2167 f73d 5f5b 983e c8b3 c93e
00000360: 0216 bbbc dab4 a03c c37f f33d ecdb 19be
00000370: 0f4a 59be cc08 4ebe c88f c4bc e35b 26be
00000380: b76a a93d 068e 9a3c 1f18 37be 8353 ff3d
00000390: 0e1d 51be abf6 f43d ba67 15bd f0ad c9bd
000003a0: e794 9dbd 2f5b 0ebe dce1 36be 05c0 2ebe
000003b0: 3aad 08be d97b 8a3d 6232 8c3d e356 153d
000003c0: 5302 32be 356d f63d 8e35 f33d 0ded e13c
000003d0: 87e5 bcbe f36b a73b 73cd e2be 461d 11bf
000003e0: b7eb dabe b03f 31bf 8a9c 16bf 2482 e7be
000003f0: 4b49 e23e a35a 073f dce4 153f 4a81 3c3e

conv.0.bias f4 [16]
-0.19533555 -0.22906534 -0.58447105 -0.13116418 -0.17700939 -0.6322338 -0.07293501 0.019512469
-0.043039333 0.2660592 -0.3097433 -0.22008355 -0.12893084 -0.11852031 0.8602443 -0.06431393
00000000: 0b06 48be 1b90 6abe e59f 15bf e74f 06be
00000010: f341 35be 13da 21bf f35e 95bd 9dd8 9f3c
00000020: 034a 30bd e938 883e ac96 9ebe 955d 61be
00000030: 7206 04be c7ba f2bd f838 5c3f 06b7 83bd

conv.2.weight f4 [32, 16, 3, 3]
0.055565722 -0.060349654 -0.082997166 -0.07534057 -0.007829659 0.06617964 0.02287659 0.0048581734
-0.06230607 0.026658198 0.022861326 0.012555073 0.041010194 -0.0061455877 -0.058762167 -0.043865126
-0.09104126 -0.06933514 -0.012569715 -0.060618505 -0.025645372 -0.034507304 -0.11827393 -0.12167785
-0.031941414 -0.04778106 -0.11677523 0.07433247 -0.013809559 0.008588386 0.0019241606 0.006738778
-0.036357164 0.040767223 -0.05295834 -0.072376445 -0.06987847 -0.08221136 -0.067747414 -0.04160726
0.011918662 -0.04003734 -0.08635289 0.024984047 -0.060718317 -0.06963226 -0.027749881 -0.056833796
0.042566072 -0.012709822 0.027918667 -0.017308528 0.039137535 -0.06323274 -0.06961597 -0.038092386
0.0049231504 0.015461201 -0.04963958 -0.078733325 0.02665946 -0.021699306 0.044510983 0.0006902121
0.025326885 -0.016112143 -0.10383989 -0.052761987 -0.04086695 -0.073604494 -0.007462604 0.04525873
0.058053695 0.0014442876 0.06025911 0.041898586 -0.07498857 0.047579788 0.048869915 0.03470484
0.056560688 -0.07761031 -0.009612778 -0.024212155 -0.021238592 -0.014466031 -0.03874841 0.040403597
0.011560886 -0.031178795 -0.064134076 -0.062098306 -0.06767194 -0.007622713 -0.10697781 0.032469433
-0.11328894 -0.11403982 -0.07994353 0.03321852 0.017847912 -0.08823157 0.006262521 -0.09711312
-0.07813204 -0.07673126 -0.05418026 -0.07402086 0.0010634139 -0.040674966 -0.023359887 -0.057273947
-0.030314974 -0.045152705 0.022074528 -0.03562098 0.0263462 0.040233184 0.0033636915 -0.0038776821
0.05516684 -0.035005774 -0.06374862 0.06548695 0.056542724 -0.07629678 0.014907406 0.018439775
0.01763519 -0.013704774 -0.025768952 0.040177602 -0.014354808 0.019964462 -0.027262641 0.032367405
0.06450601 0.01588057 0.018193295 -0.011216242 -0.027853679 -0.0512032 0.018886343 0.06945445
0.045403637 -0.03912863 -0.017164879 0.084230356 0.025315344 0.00054814137 -0.025682103 0.05240584
-0.080586225 -0.4845859 -0.14633767 -0.048638366 -0.23067811 -0.1869783 -0.14651228 -0.228543
-0.18618248 -0.1861098 -0.66534376 -0.32878977 -0.22805327 -0.44426885 -0.2560934 -0.25753313
-0.3913285 -0.20075823 -0.21521415 -0.07165544 -0.0037849664 -0.0727466 -0.07360877 -0.10633656
-0.08834509 0.06511684 -0.028380524 0.016339317 1.1294909 0.9559555 0.6687697 1.1664727
0.9212076 0.6289617 0.9979617 0.7807274 0.61318517 0.07532982 0.11593234 0.19522704
0.24277869 0.29394445 0.06868115 0.18890907 0.18865456 0.11195472 -0.0075940248 0.0342849
-0.09672567 0.060282767 0.06177706 0.047100205 0.06897232 0.03134638 0.0801038 -0.29966468
-0.24938974 -0.13035229 -0.22749725 -0.33588654 -0.22723986 -0.34013075 -0.2028446 -0.18955301
0.01496548 -0.008375398 -0.085837185 -0.049818166 0.049646355 0.038248595 -0.024213532 0.008291841
-0.008747545 0.8718478 0.61373687 0.7570881 0.73395145 0.59673655 0.7021715 0.65186185
0.35070804 0.5753162 -1.2685468 -1.3790559 -1.3813276 -1.124555 -1.3204949 -1.3973308
-0.98804563 -1.2080768 -1.3887589 -0.8459986 -0.59681934 -0.4582016 -0.7179173 -0.40864417
-0.48512676 -0.46624124 -0.2632519 -0.31572223 -0.02807958 0.06199973 -0.0008265078 0.021793336
00000000: e298 633d 3331 77bd 6bfa a9bd 284c 9abd
00000010: f847 00bc 3189 873d b067 bb3c 5031 9f3b
00000020: a634 7fbd 4b62 da3c ad47 bb3c cbb3 4d3c
00000030: 4efa 273d ed60 c9bb 99b0 70bd ebab 33bd
00000040: d773 babd 95ff 8dbd 35f1 4dbc 1c4b 78bd
00000050: 3e16 d2bc 8857 0dbd 9a39 f2bd 3d32 f9bd
00000060: 00d5 02bd 13b6 43bd da27 efbd 9f3b 983d
00000070: 7d41 62bc 4db6 0c3c 1e34 fc3a f8d0 dc3b
00000080: 40eb 14bd 88fb 263d d8ea 58bd 1a3a 94bd
00000090: 711c 8fbd 6e5e a8bd 28bf 8abd 606c 2abd
000000a0: 7e46 433c 32fe 23bd c9d9 b0bd 58ab cc3c
000000b0: c5b3 78bd 5c9b 8ebd b853 e3bc 8eca 68bd
000000c0: c359 2e3d db3c 50bc b0b5 e43c 9dca 8dbc
000000d0: ae4e 203d 2b80 81bd d192 8ebd c306 1cbd
000000e0: 6152 a13b fa50 7d3c df52 4bbd f03e a1bd
000000f0: f164 da3c bec2 b1bc 2651 363d 5aef 343a
00000100: 547a cf3c 9dfd 83bc 02aa d4bd f41c 58bd
00000110: 1a64 27bd f4bd 96bd dc88 f4bb 3861 393d
00000120: b6c9 6d3d 404e bd3a 42d2 763d da9d 2b3d
00000130: 9b93 99bd 06e3 423d d22b 483d aa26 0e3d
00000140: 2eac 673d 27f2 9ebd ea7e 1dbc 9258 c6bc
00000150: 8efc adbc ef02 6dbc a7b6 1ebd 3e7e 253d
00000160: df69 3d3c ac6a ffbc ba58 83bd cb5a 7ebd
00000170: 9697 8abd f4c7 f9bb 2f17 dbbd abfe 043d
00000180: 0804 e8bd b68d e9bd 6fb9 a3bd 2510 083d
00000190: c935 923c c1b2 b4bd d535 cd3b 3ee3 c6bd
000001a0: b103 a0bd 4725 9dbd 1fec 5dbd 4098 97bd
000001b0: 4062 8b3a cb9a 26bd 3c5d bfbc 1698 6abd
000001c0: 1c57 f8bc 0bf2 38bd a4d5 b43c 4ee7 11bd
000001d0: fcd3 d73c 8dcb 243d 6171 5c3b b620 7ebb
000001e0: a0f6 613d 3762 0fbd a38e 82bd 061e 863d
000001f0: 5899 673d 7c41 9cbd 313e 743c 030f 973c
00000200: ad77 903c fd89 60bc 6919 d3bc 4591 243d
00000210: 6e30 6bbc 838c a33c e755 dfbc af93 043d
00000220: ba1b 843d f817 823c 1b0a 953c 54c4 37bc
00000230: 662d e4bc 72ba 51bd 88b7 9a3c 223e 8e3d
00000240: 2af9 393d 5845 20bd 5c9d 8cbc f780 ac3d
00000250: 2062 cf3c 25b1 0f3a 4663 d2bc 82a7 563d
00000260: 640a a5bd a51b f8be 8bd9 15be 0639 47bd
00000270: e236 6cbe 3d77 3fbe 5107 16be 2d07 6abe
00000280: 9fa6 3ebe 9193 3ebe f853 2abf 2257 a8be
00000290: cc86 69be 3577 e3be ad1e 83be 62db 83be
000002a0: 365c c8be 9193 4dbe 1961 5cbe 16c0 92bd
000002b0: 330d 78bb 2bfc 94bd 32c0 96bd fbc6 d9bd
000002c0: 45ee b4bd fa5b 853d 467e e8bc 08da 853c
000002d0: 2893 903f 80b9 743f 7e34 2b3f fa4e 953f
000002e0: 43d4 6b3f a203 213f 6b7a 7f3f c0dd 473f
000002f0: b4f9 1c3f 8546 9a3d ef6d ed3d 99e9 473e
00000300: fa9a 783e e37f 963e b4a8 8c3d 6171 413e
00000310: a92e 413e 8448 e53d 4cd7 f8bb 536e 0c3d
00000320: 1c18 c6bd 10eb 763d f109 7d3d 25ec 403d
00000330: 5c41 8d3d 1065 003d 760d a43d a66d 99be
00000340: 0660 7fbe 127b 05be 0af5 68be 52f9 abbe
00000350: 91b1 68be 9e25 aebe 7fb6 4fbe 2f1a 42be
00000360: c631 753c f738 09bc 68cb afbd 220e 4cbd
00000370: fa59 4b3d 8faa 1c3d 755b c6bc 80da 073c
00000380: dd51 0fbc 6b31 5f3f dc1d 1d3f 87d0 413f
00000390: 3ee4 3b3f bac3 183f 83c1 333f 6be0 263f
000003a0: 0190 b33e ec47 133f be5f a2bf e784 b0bf
000003b0: 58cf b0bf 6bf1 8fbf fa05 a9bf bcdb b2bf
000003c0: 8ff0 7cbf 43a2 9abf dac2 b1bf 5d93 58bf
000003d0: 27c9 18bf 6699 eabe 6ec9 37bf cf39 d1be
000003e0: 8962 f8be 2cb7 eebe f4c8 86be 58a6 a1be
000003f0: 2607 e6bc 6ef3 7d3d 00aa 58ba f087 b23c

conv.2.bias f4 [32]
-0.089039266 -0.16770002 -0.098515525 -0.68867826 -0.046412844 -0.13961546 0.28042483 -0.1841473
-0.117786296 -0.0881166 -0.18797882 -0.1149476 0.044223685 0.4373485 0.08537797 -0.83408463
-0.7579788 -0.089777455 -0.13812009 -0.121281065 -0.9032297 -0.17291749 0.6769632 0.49497268
-0.03925382 -0.09401252 -0.8135534 0.05739831 -0.056178663 -0.020909036 -0.20807354 -0.11118178
00000000: 385a b6bd 8eb9 2bbe 82c2 c9bd 384d 30bf
00000010: 651b 3ebd 5bf7 0ebe d893 8f3e 1c91 3cbe
00000020: f139 f1bd 7a76 b4bd 857d 40be a669 ebbd
00000030: e523 353d 25ec df3e a5da ae3d 9286 55bf
00000040: e60a 42bf 3edd b7bd 5a6f 0dbe 3562 f8bd
00000050: 103a 67bf 4811 31be 764d 2d3f 0f6d fd3e
00000060: 9dc8 20bd a389 c0bd 0945 50bf 7e1a 6b3d
00000070: 991b 66bd 6d49 abbc 3b11 55be 46b3 e3bd

fc.weight f4 [2, 32]
-0.07172791 0.51030105 -0.11481198 0.32585117 -0.11941724 -0.03406036 -1.8813148 -0.38543415
-0.09253518 -0.14378946 -0.79005533 0.05738872 1.013869 0.8658437 -0.30309388 0.18563081
0.022275282 0.066489816 -0.074334286 -0.121357694 -0.47140822 0.00059325446 0.7690285 0.6165248
0.23757942 -0.09330712 -0.85391086 0.26490933 -0.055786863 -0.10451018 0.29910323 0.072121926
0.025671108 0.868822 0.07495757 -0.60425395 0.021652635 0.0032749358 -0.72125924 0.017542621
-0.008174477 0.12025857 -0.33693185 0.6014425 -0.05119845 0.0008934218 1.2494345 -0.6234266
-0.35788706 0.007132415 0.025222173 -0.079853736 -1.0116282 0.45079637 0.33782032 0.20196877
0.5277576 -0.112672 -0.7000975 1.250769 0.008476491 -0.018547991 0.5268978 1.0714805
00000000: 15e6 92bd 17a3 023f 8b22 ebbd f7d5 a63e
00000010: 0791 f4bd e082 0bbd ecce f0bf a057 c5be
00000020: 1683 bdbd 8b3d 13be 1141 4abf 6f10 6b3d
00000030: 76c6 813f efa7 5d3f 1f2f 9bbe 0116 3e3e
00000040: a77a b63c d02b 883d 933c 98bd 628a f8bd
00000050: 6b5c f1be a284 1b3a 0ddf 443f 92d4 1d3f
00000060: 0548 733e ce17 bfbd e799 5abf 32a2 873e
00000070: c480 64bd 6f09 d6bd 0f24 993e a9b4 933d
00000080: 374c d23c 1e6b 5e3f 5b83 993d 63b0 1abf
00000090: de60 b13c 4ea0 563b 72a4 38bf 8bb5 8f3c
000000a0: 3eee 05bc 204a f63d 5582 acbe 23f8 193f
000000b0: 77b5 51bd 8634 6a3a 78ed 9f3f e398 1fbf
000000c0: f93c b7be 09b7 e93b bb9e ce3c 5b8a a3bd
000000d0: 087d 81bf c8ce e63e c9f6 ac3e e7d0 4e3e
000000e0: 1f1b 073f 94c0 e6bd 9739 33bf 3319 a03f
000000f0: fbe0 0a3c f5f1 97bc c6e2 063f 4626 893f

fc.bias f4 [2]
0.6761242 -0.09621085
00000000: 7a16 2d3f 320a c5bd
