model_best.onnx (onnx, 96888 bytes, 8 tensors)

conv.0.weight f4 [16, 3, 3, 3]
000000 fc f4 16 bf 71 49 c6 be 59 28 2a bd ec c6 06 bf
       -0.58967566 -0.38727906 -0.041542385 -0.5264728
000010 20 10 f9 bc c6 9a 69 bc 3e a2 f4 be 6e 12 34 3d
       -0.030403197 -0.014258092 -0.4778003 0.04396289
000020 42 33 b5 bb 9b c1 4b 3e 82 d4 25 3f fc 4a 04 3f
       -0.005529792 0.19898073 0.64777386 0.5167692
000030 97 c5 f5 3e 76 01 82 3f d8 4e 67 3f 4e 4e 95 3e
       0.48002312 1.0156696 0.9035468 0.29161304
000040 13 5d 3c 3f db 41 76 3f ae 8d 94 be 46 c2 8b be
       0.7357952 0.9619424 -0.29014343 -0.27296656
000050 8a 97 a4 be a5 94 85 be ca 3d 82 bc d6 ec 6d 3e
       -0.32146865 -0.2608997 -0.015898604 0.23234877
000060 45 dd c8 be a4 2a cf 3d 0b 1e 35 3e 43 3d f8 bd
       -0.39231315 0.10115555 0.17687242 -0.1212106
000070 5a 01 c7 be 58 26 d5 bd 6b c8 a4 be df 5c 99 bd
       -0.3886822 -0.10407704 -0.32184157 -0.07488417
000080 60 5d 79 be b1 8e c3 bd f7 fa 9c be 64 1a 7a bd
       -0.24352026 -0.095487006 -0.3066022 -0.061060324
000090 d1 e7 35 bf 85 9d 7e bf 7f 63 5b be 5c d8 81 bf
       -0.7105685 -0.99459106 -0.21424673 -1.0144153
0000a0 7e c5 5e bf ac a0 3d bf f2 78 d6 be 07 65 6e bf
       -0.870201 -0.7407329 -0.4188915 -0.93122905
0000b0 e4 40 19 bf 07 19 0f 3e 4a 67 bf 3d e8 56 40 bd
       -0.5986464 0.13974391 0.09345873 -0.04695788
0000c0 9e 5e 5e be a8 f1 36 be 48 28 26 3d 63 cb c9 bd
       -0.21715781 -0.17865622 0.04056576 -0.09853246
0000d0 a8 aa 96 bd 52 2d e4 3d d3 db 1f 3d 21 fe 8a 3a
       -0.07356769 0.11141457 0.039028 0.0010604301
0000e0 90 6c f5 bd a8 2a f3 bd 3b e3 cb 3d b2 2e 85 bd
       -0.11983597 -0.118733704 0.0995545 -0.06503047
0000f0 99 04 01 3d 32 1f 06 be 78 86 6a be 3d 01 2d bf
       0.031498525 -0.13097838 -0.22902858 -0.67580014
000100 94 17 30 bf f8 1f 91 bf 6a 11 12 bf 5c ab 2e bf
       -0.6878598 -1.1337881 -0.5705782 -0.68230224
000110 25 c4 5b bf 8a a0 2d bf e1 82 3b bf 59 0f 4f bf
       -0.8584617 -0.6782309 -0.7324658 -0.80882794
000120 24 ef bd 3e c3 51 6a 3e 7e c2 4f 3e 08 0e c4 3e
       0.37096512 0.22882752 0.20289037 0.38291955
000130 ec 53 bf 3e 23 f8 ad 3c 79 08 a8 3e 68 22 3a 3e
       0.37368715 0.021236485 0.32818964 0.18177187
000140 63 f5 02 3e d7 16 fc 3d 9c a9 25 be fe d5 87 3d
       0.1278892 0.12309044 -0.16177982 0.06632613
000150 a1 bd 0e 3d 54 66 7e bd 2d dd 36 bd 2e ac 51 be
       0.034848813 -0.062109306 -0.044644523 -0.20475838
000160 1b ea 5f 3d 67 d2 dd bd 6d 6f 1d bb 30 48 ef 3d
       0.05466662 -0.10831147 -0.0024022714 0.116836905
000170 d2 fe 21 3d 7f b7 3b be 7d 3a 0f be 12 5d 23 be
       0.039549656 -0.18331717 -0.13987155 -0.15953472
000180 4f 1c de bd 34 40 19 bc 26 44 3b 3c 01 e8 7f 3d
       -0.10845243 -0.009353686 0.011429822 0.062477116
000190 67 10 3d be d1 13 19 be c3 6a 8e bd cf e6 74 3d
       -0.18463288 -0.14948966 -0.06953957 0.05979043
0001a0 b2 eb 20 bd c2 80 8f 3c 60 be bd bd 37 df 12 be
       -0.039287277 0.017517451 -0.09264827 -0.14342962
0001b0 97 e9 3d be 6e 97 87 be 4a 42 89 bd d8 38 c1 bd
       -0.18546139 -0.2648272 -0.06702097 -0.0943467
0001c0 6e 9c 8b be e3 b5 07 be b5 e7 4a be a3 bb 80 be
       -0.27267784 -0.13252978 -0.19814952 -0.25143155
0001d0 79 23 49 be 73 d1 52 bd eb aa 65 3d d8 a8 f7 3c
       -0.19642438 -0.051469278 0.056071203 0.030231878
0001e0 79 d6 94 3e 0b 6b 2e 3e 20 c5 80 3e ae 2a a1 3e
       0.2906988 0.17033021 0.25150394 0.31477875
0001f0 c5 be bc 3c 0b bb 93 3e c8 63 2f bf 37 8b a8 be
       0.023040185 0.2885364 -0.6851163 -0.32918712
000200 99 70 f5 be 8e 27 c4 be a5 76 24 bf 6e 52 fd be
       -0.47937468 -0.38311428 -0.6424354 -0.4947695
000210 d0 60 bd be 4c 47 cd be c5 58 2d be 5c c5 b4 bd
       -0.36987925 -0.40093458 -0.16928394 -0.08826706
000220 bb 20 91 bd 21 50 80 be be 7b 23 3d 1f 5d 86 be
       -0.07086321 -0.25061134 0.03991293 -0.2624292
000230 87 ef 95 be ca 70 8d 3d c9 a7 9d be 0b d1 53 be
       -0.29284307 0.069062784 -0.30792072 -0.20685212
000240 fe 58 47 bf 86 31 75 bf 6d f5 86 bf e2 02 52 bf
       -0.77870166 -0.9577869 -1.0543648 -0.8203565
000250 92 51 b1 bf 30 a4 c0 bf 8d 70 15 bf ec 1b aa bf
       -1.3853018 -1.5050106 -0.58374864 -1.3289771
000260 ab e0 1b bf c3 73 56 be 6a b4 a6 bd 12 a1 d7 3d
       -0.6088969 -0.20942597 -0.0813988 0.105287686
000270 b1 ef 99 3d bd cf ba 3d a3 b3 91 bd 8b 1a d1 3d
       0.07516421 0.09121654 -0.07114341 0.10210141
000280 c7 0f 13 bd e1 1c d8 3d 75 b2 1b bf 6b f8 9c be
       -0.03590372 0.10552383 -0.6081918 -0.30658278
000290 37 ab 59 bd 98 41 09 bf cb 70 19 3e a6 5b 92 3e
       -0.0531418 -0.53615713 0.14984433 0.28585547
0002a0 57 ba a0 3d 78 da a5 3e cb 25 8d 3f 1c 5b 54 bf
       0.078480415 0.3239324 1.1027158 -0.8295152
0002b0 98 b1 19 bf 16 ba 61 be 2b db 6b bf 0d 09 78 be
       -0.6003661 -0.22043642 -0.921313 -0.24222203
0002c0 63 b1 bf 3e fc 99 57 be 27 d8 32 3e bc a1 65 3f
       0.37440023 -0.21054834 0.17465268 0.8969991
0002d0 10 72 cc be 67 55 45 be 48 6f 1a be 52 2b 29 be
       -0.39930773 -0.1927086 -0.15081513 -0.16520432
0002e0 94 ea 93 3e 76 31 50 3e b7 3b 82 3e 0d 14 08 3f
       0.28889906 0.20331368 0.25436184 0.53155595
0002f0 74 d9 7e 3f 09 62 19 3f 67 45 f4 3e 03 ef f6 3e
       0.9955056 0.59915215 0.477092 0.48229226
000300 b9 7d fe 3e 74 f9 f3 3e bd f3 8f 3e 95 3d cf 3e
       0.49705294 0.47651255 0.28115645 0.4047667
000310 36 97 56 3d 2d 03 50 3e 8d 72 ea 3d 75 15 d5 3c
       0.0523903 0.20313711 0.1144763 0.026011208
000320 de a4 fc bd 03 f2 8b be 28 f6 a3 be 54 59 a8 be
       -0.123361334 -0.27333078 -0.3202374 -0.32880652
000330 06 62 c0 be 47 c6 25 bf 68 8a 1e bf 77 5c cc 3d
       -0.37574786 -0.6475567 -0.6192994 0.09978574
000340 b1 5a f6 3d 2b d1 40 bc 1a 82 32 be a8 21 9f be
       0.12029017 -0.0117686195 -0.17432442 -0.31080365
000350 3a 16 a6 be 07 68 d6 be 43 89 ec be 21 53 0e bf
       -0.32438833 -0.41876242 -0.46198472 -0.55595595
000360 3c f5 6a 3f c9 ea 27 3f 2d aa 3a be f3 2c 4b 3f
       0.9178045 0.6559263 -0.1822898 0.7936546
000370 4f ba e8 3d cc 0a 01 bf 7e a0 1d be aa 24 24 bf
       0.113636605 -0.504071 -0.15393254 -0.64118445
000380 44 e0 8e bf b8 5d 93 3f 3d 45 83 3f da 09 a2 bd
       -1.116219 1.1512976 1.0255505 -0.07912035
000390 ed b4 40 3f fa e5 7a 3e f7 bc 41 bf f9 7b 8e bd
       0.7527607 0.24501792 -0.7567896 -0.0695724
0003a0 f2 09 1c bf 17 e9 80 bf 82 f6 8c 3f ca c1 75 3f
       -0.60952675 -1.0071133 1.1012728 0.95998824
0003b0 b1 9e 91 3e bb c8 6c 3f 48 3f a2 3e fd b4 fa be
       0.28441384 0.9249379 0.31688905 -0.48966208
0003c0 9b 06 05 be 5f 04 28 bf f3 bf 38 bf e0 4e 80 3d
       -0.12990801 -0.6563167 -0.7216789 0.06265044
0003d0 6a 0b 72 ba 7d cd 83 3d 88 df a3 bd 59 0f 23 3d
       -0.0009233268 0.06435678 -0.080016196 0.03980956
0003e0 e9 4a df 3d 8d 81 93 bd 2d 2a 2e 3e ac 20 aa bd
       0.1090296 -0.07202444 0.17008276 -0.08307013
0003f0 13 3b 4d bc ab 1b 03 bc 0b 40 ff bd bc d1 86 be
       -0.012526291 -0.008002202 -0.12463387 -0.2633189

conv.0.bias f4 [16]
000000 0c c6 05 bf 2c a3 f0 3e ed fa dc 3e c4 b9 01 bd
       -0.5225532 0.4699949 0.4316019 -0.0316713
000010 7e d1 17 3f 88 f4 d2 3e b1 31 30 be 55 83 26 be
       0.59304035 0.41202188 -0.17206456 -0.16261037
000020 82 37 e9 be 4d bd 3f be 11 9e 17 3b 70 10 16 bf
       -0.45550162 -0.18724556 0.0023134986 -0.5861883
000030 54 8d da 3e 65 54 15 be 42 40 c2 3e e0 8b 32 bd
       0.4268595 -0.14582975 0.3793965 -0.043590426

conv.2.weight f4 [32, 16, 3, 3]
000000 38 dd 2f be 40 9a 3b 3c 49 2f 8b bf b1 b3 8c bd
       -0.17174232 0.01145035 -1.0873805 -0.06870211
000010 a2 92 09 bd 79 25 8e bf 33 07 17 3f 2a 26 43 be
       -0.033587106 -1.1105186 0.5899536 -0.19057527
000020 55 b6 4a bf eb b7 0f bf 25 71 6a bf 9d b7 20 bf
       -0.79184467 -0.5614001 -0.91578895 -0.6278017
000030 ec cc e9 bd d6 e4 99 be cf 84 db be c6 f6 6f bd
       -0.11416039 -0.300574 -0.42874762 -0.05858495
000040 ea 95 e0 3e 94 ae 16 3f ac 43 b7 be ff f7 d8 be
       0.43864375 0.58860135 -0.35793817 -0.42376706
000050 cb 04 4e be e3 ef 85 be 3a 5a 69 be 2b e1 1a be
       -0.20119016 -0.26159582 -0.22788325 -0.15124957
000060 2f 1e 1a be 5f 3e 2c 3d e6 1d 43 3d 12 c0 5e bc
       -0.15050577 0.04205167 0.047635935 -0.013595598
000070 c4 0d 42 3d 42 b1 b1 bc 79 d8 82 3c df b2 d1 bc
       0.04737641 -0.021690968 0.015972363 -0.025597988
000080 51 df f1 3c fe a9 87 3c c5 13 7e bd f2 5b e8 3c
       0.02952543 0.01656055 -0.062030572 0.028364155
000090 0a 49 cd be c3 7c af be 36 70 9e be d4 cc a1 be
       -0.40094787 -0.34274873 -0.30944985 -0.31601584
0000a0 5b d5 56 be 5b 61 0a be 3d 3d 4f be 73 84 7c be
       -0.20979826 -0.135137 -0.20238204 -0.246599
0000b0 2c d6 66 be 66 6e bb be 38 30 f2 be 96 8a a2 be
       -0.22542638 -0.36607665 -0.47302413 -0.31746358
0000c0 cf 41 0f bf c1 16 68 be 55 8c e3 be 8b 62 ef be
       -0.5595979 -0.2266493 -0.44443002 -0.4675487
0000d0 50 1a 00 be 65 82 90 bd 3c 20 21 3f 72 97 b1 be
       -0.12510037 -0.07056121 0.6293981 -0.34685856
0000e0 1b ed 66 bf f6 cc 94 3f cf 01 05 3e a4 c6 e3 3e
       -0.90205544 1.1625049 0.12988971 0.44487488
0000f0 5c 05 18 3f 82 31 bd 3e bb ba 05 3f 31 f1 24 3e
       0.5938318 0.36951834 0.52238053 0.16107632
000100 34 a9 dd 3e a4 58 ef 3e 03 64 b7 3e a0 e8 f6 3e
       0.43293154 0.46747315 0.3581849 0.48224354
000110 ad 7d a9 3e a9 9b 9e 3e c3 74 9c 3e 34 90 a8 3e
       0.33103696 0.30978134 0.30557832 0.32922518
000120 76 02 15 be d2 38 e0 3e d3 42 76 3f 3c e4 ba bd
       -0.1455172 0.4379335 0.96195716 -0.091255635
000130 77 29 0e be 81 73 91 be 94 a8 79 bf 19 27 00 3f
       -0.13883005 -0.28408435 -0.97522855 0.5005966
000140 3c 14 95 bc 33 10 27 3c 15 03 d6 3c 91 ac 84 3c
       -0.018198125 0.010196733 0.026124517 0.016195567
000150 2a 84 97 3d 7b 39 1e 3d a8 21 c1 bd f4 b3 a3 3d
       0.07398255 0.038629036 -0.094302475 0.07993308
000160 87 8d e3 bc 78 d1 6d 3d ef cc 89 3c 8c 0b 80 bd
       -0.027777446 0.058061093 0.016821353 -0.062522024
000170 10 55 50 3d 0d b8 e9 bc 9d 7e e7 ba 1f 18 15 3d
       0.050862372 -0.028530145 -0.0017661635 0.036399957
000180 71 b8 89 bd 69 fd be 3d aa 6c 72 bc 7a 33 58 3f
       -0.067246325 0.09325678 -0.014796415 0.84453547
000190 e3 7c 3c 3f d0 ce 20 3f 66 b7 56 3f 4c 11 03 3f
       0.7362806 0.6281557 0.83873594 0.5119827
0001a0 dd eb c4 3e 48 a4 40 3f 72 39 d0 3e d6 8e e7 3e
       0.384612 0.75250673 0.40668827 0.45226163
0001b0 b6 ab 8c 3e 2f ff 23 bf 8f 0a 75 bf d8 8c a9 3e
       0.27474755 -0.64061254 -0.95719236 0.33115268
0001c0 8e 1e 24 3e 19 62 14 bf 31 5a 25 3f 73 bf 23 3f
       0.1602728 -0.57962185 0.64590746 0.63964003
0001d0 a5 20 5b 3f 85 78 e3 bc 77 de 1f bc eb e3 aa bd
       0.85596687 -0.02776743 -0.00975763 -0.08344253
0001e0 e1 58 99 bd ae dc 94 bd c1 20 97 bc 53 8d 05 bd
       -0.074876554 -0.07268654 -0.018448235 -0.03260548
0001f0 e6 f6 2d bd 86 8b 53 bd 65 50 b8 be b2 e1 dd be
       -0.04247179 -0.05164673 -0.35998836 -0.43336254
000200 03 35 c2 be c4 9d cc be 54 40 b7 be 63 cb ac be
       -0.3793107 -0.39964116 -0.35791266 -0.33748922
000210 22 ad 48 be 69 67 e5 bd 7b 01 21 be b0 3f e0 bc
       -0.19597295 -0.112013645 -0.15723221 -0.027374119
000220 be 32 5b 3d d3 b3 60 3d 44 4a 8d bd ce 2e a7 bc
       0.05351519 0.054858994 -0.06898931 -0.02040806
000230 43 3b 88 3d 14 b9 f9 bc 8d 92 9d 3b 0e 1b 30 3d
       0.06651928 -0.03048376 0.00480873 0.04299455
000240 e1 1b 2e bf 47 61 8c be 49 6e 50 3e ec d1 48 bf
       -0.6801129 -0.27417967 0.2035457 -0.78445315
000250 0b f7 fa be 0c 64 63 be 17 73 fb bd 58 ae 0c bf
       -0.49016604 -0.22206134 -0.12277811 -0.5495353
000260 52 8e 41 bf 39 47 ab 3d c2 bb 21 be 01 2b 08 3f
       -0.7560779 0.08363194 -0.1579428 0.5319062
000270 a6 a0 99 3e 5e 7d 0d 3f 38 64 b6 be 47 38 de be
       0.30005378 0.5526942 -0.35623336 -0.4340231
000280 a3 e3 c8 be e6 e8 07 bf db 8c d0 3e 46 19 9d 3e
       -0.39236173 -0.5308975 0.40732464 0.30683345
000290 c9 23 f0 3e 2b 9c fe 3e be fd d5 3e 59 8b 5d 3d
       0.46902302 0.49728522 0.41795152 0.05408797
0002a0 a1 63 ea bc db 0f 82 be be 4a ea be a5 9c 8b 3d
       -0.02861196 -0.25402722 -0.4576015 0.06816987
0002b0 11 e1 aa 3d a1 da 17 bd dc e5 ae 3d 9d 26 5f 3c
       0.08343709 -0.037073735 0.08539936 0.013620046
0002c0 7f 3f a0 3c ac 8b b6 bc 0d b6 97 bd 56 6c 80 bd
       0.019561527 -0.022283398 -0.0740777 -0.062706634
0002d0 76 75 f5 bd fd fd 6f bf 8b f3 a9 be cd 7a 83 be
       -0.119852945 -0.9374693 -0.3319362 -0.25679627
0002e0 94 2e c5 bd c2 1c db 3d c3 fa 34 bf 6c a0 81 be
       -0.09628025 0.106988445 -0.7069513 -0.25317705
0002f0 28 26 8d be e8 86 88 3e b8 7c db be 49 98 3b 3f
       -0.27568173 0.26665425 -0.4286859 0.73279244
000300 59 7d 03 3e 7a 09 41 3d 7d d9 a4 be 4d 59 d8 be
       0.12840785 0.04712818 -0.3219718 -0.4225563
000310 6c 05 34 bf 71 56 2c bf 8f 25 66 bf 16 60 e7 3e
       -0.70320773 -0.673194 -0.8990106 0.45190495
000320 d2 c9 b0 3e 2b 73 24 3e 40 4d 05 3f db 75 23 3e
       0.34528977 0.16059558 0.52071 0.15962927
000330 c7 23 4f 3f ba 9f 5d 3f 8a 35 99 3e 23 fa 13 be
       0.80913967 0.8657185 0.2992366 -0.14450888
000340 71 e5 4c 3d c8 43 4d be 62 5a 97 bd 25 51 8c bd
       0.0500235 -0.20045388 -0.07390286 -0.068514146
000350 0e 15 d4 be 5b 7a b0 be db 59 6b bd 86 20 f2 be
       -0.41422313 -0.3446835 -0.05745874 -0.47290438
000360 38 22 47 bf 98 bf a5 be 85 df af bf 0a b3 3f bf
       -0.7778659 -0.32372737 -1.3740088 -0.74882567
000370 55 8b 82 bf 25 a7 10 bf ba 52 cd be 74 80 19 bf
       -1.0198771 -0.5650504 -0.40102178 -0.5996163
000380 a5 9d 29 bf 5f b9 84 bd cd 9a 89 3d b0 bc 1b 3d
       -0.6625617 -0.06480669 0.06718979 0.038021743
000390 27 bf 5f bd fd 10 39 3d b5 31 e6 bc b0 11 f5 3b
       -0.054625656 0.045182217 -0.028099874 0.007478915
0003a0 29 3f 9d bd e3 0c 6f 3d da 82 4b bc 00 ae 96 3d
       -0.076780625 0.0583619 -0.012421334 0.073574066
0003b0 28 f8 dc bb 2d f3 cf bc 3f 67 14 bd 49 38 04 bd
       -0.0067434497 -0.02538451 -0.036231276 -0.03228024
0003c0 4a 4c 95 bd b6 1b a5 3d 71 e2 1f 3d 38 ac c0 be
       -0.072899416 0.08061926 0.03903431 -0.37631392
0003d0 49 fa 8e bd 21 61 ab bc 3f 3b 94 be f4 7a c1 3e
       -0.06981332 -0.020920338 -0.2895145 0.37789118
0003e0 49 82 16 3f 73 8e 66 bf ec cf 09 be 0d c0 f9 bd
       0.5879255 -0.9006111 -0.13458222 -0.12194834
0003f0 b7 f3 47 bf ce 6e 50 bf b3 08 16 bc c2 56 e9 be
       -0.78106254 -0.81419075 -0.0091573475 -0.45574003

conv.2.bias f4 [32]
000000 cf af c4 be 87 9f 12 be 43 a2 2e be 9a 37 12 be
       -0.3841538 -0.14318667 -0.17054085 -0.14279023
000010 c7 c2 05 bf 79 46 00 be 90 3c 1c bf 6d 34 90 be
       -0.5225033 -0.12526883 -0.6102991 -0.28164998
000020 4b 0c cc bd 9d 7f 1c bf 36 f2 6d bf 56 64 b2 be
       -0.09963282 -0.6113222 -0.9294771 -0.34842175
000030 cf 1a 84 bd f7 cc 40 bf ab bd 97 bf 26 8f 13 be
       -0.06450426 -0.7531275 -1.1854757 -0.14410076
000040 60 75 47 bf 26 1b 17 be b2 25 12 be c0 f2 d7 be
       -0.77913475 -0.1475645 -0.14272192 -0.4217739
000050 56 98 52 bf e9 1e 14 bf 97 37 e1 be a6 28 20 bf
       -0.82263696 -0.57859665 -0.43987724 -0.62562025
000060 60 62 56 bf b6 c6 99 bd 46 fb 92 be 9c ff e9 bd
       -0.8374386 -0.07508604 -0.2870733 -0.11425707
000070 1b ff 93 be 09 b2 2e bd 5e 69 86 be 5d 38 d1 bb
       -0.28905568 -0.042650256 -0.26252264 -0.006384893

conv.4.weight f4 [64, 32, 3, 3]
000000 22 4b 19 be f4 38 c6 be 8f e9 4b be ee 18 19 be
       -0.14970067 -0.38715327 -0.19913314 -0.14950916
000010 84 88 8b be 7b f4 3c be b4 4a 22 be e7 1e 5b be
       -0.2725259 -0.18452637 -0.1584881 -0.21398507
000020 3a b0 6f be 52 cc a9 bd bf 66 bb bd 8a 49 49 bd
       -0.23407069 -0.08290924 -0.09150457 -0.049142398
000030 44 44 5c bd aa a0 a5 bd 27 49 2b bd b9 aa 3c bd
       -0.05377604 -0.08087285 -0.04181781 -0.04606125
000040 69 f3 90 bd ac b7 92 bd 1c d1 59 bc 1a c6 93 bd
       -0.07077677 -0.07163939 -0.0132944845 -0.07215519
000050 27 2b b9 bd 63 47 d0 bb ed 71 ef bd 18 97 96 bd
       -0.09041434 -0.006356166 -0.116916515 -0.073530376
000060 7a aa c3 ba 0e 16 43 bd 65 eb 0d be 41 76 6a bd
       -0.0014928125 -0.047628455 -0.13859327 -0.057241682
000070 c2 03 a2 bc 65 dd 6d bd ce 61 a1 bd 11 10 5b bd
       -0.019777182 -0.058072466 -0.07879983 -0.05348212
000080 84 2f f6 bc 3a 60 90 bd f0 ab 55 bc b9 88 5f bd
       -0.030051954 -0.07049604 -0.013041481 -0.05457375
000090 38 7e 3b 3d 80 52 c8 bc cf 76 82 3c 17 24 e2 3b
       0.04577467 -0.024453402 0.015925793 0.006901275
0000a0 c4 69 4e 3c 7f d5 fc bb 49 b8 06 bc b0 00 da ba
       0.012598459 -0.0077158804 -0.008222648 -0.0016632285
0000b0 9c f3 5b 3c 68 d4 a8 bc df 6c 54 3d e7 f7 79 ba
       0.01342478 -0.020609096 0.05186164 -0.00095355365
0000c0 e2 27 e9 3c 16 ff b3 39 74 0f a5 bc cc 88 e7 3c
       0.0284614 0.00034331594 -0.02014897 0.028263472
0000d0 2f 63 40 bd 3e 43 c3 3c 23 7a ea bd 69 41 06 bd
       -0.04696959 0.023835775 -0.11449077 -0.032777224
0000e0 85 9a 2a bd 93 f9 1f bd 7e 38 d6 bd 5e 87 91 bd
       -0.041651268 -0.039056372 -0.10459994 -0.07105897
0000f0 7b 1d c0 bd 1b 3f c8 bc fd 32 52 3c 78 70 11 bd
       -0.09380623 -0.024444154 0.012829539 -0.03550765
000100 14 b9 d1 bc ef f6 06 3d a3 b8 07 bd 7b 80 a0 bd
       -0.025600947 0.032950338 -0.033135068 -0.07837006
000110 b0 6e a6 3d 5e 26 b1 bd 44 21 17 3d 95 1a 03 3e
       0.08126581 -0.08649896 0.03689696 0.12803109
000120 d6 26 3f be 10 3f 32 be f7 20 53 be 3d 18 15 be
       -0.18667158 -0.17406869 -0.20618044 -0.14560027
000130 1e 2e 1f be 07 65 2b be b0 ab 43 be 4e de 53 be
       -0.15544936 -0.16737758 -0.19108462 -0.20690271
000140 2a 96 bc bd b2 75 64 bb 47 71 ab bc f5 b2 05 3d
       -0.09208329 -0.003486019 -0.020928038 0.03264137
000150 4b cd 84 3b 5a 58 37 3c f5 94 b7 bc f1 b6 f4 3b
       0.004052793 0.011190498 -0.022409895 0.0074680974
000160 84 67 76 bd be 3b c3 3b e0 9a 9e bd 80 1b 5c bb
       -0.060157314 0.0059580496 -0.07744384 -0.0033585727
000170 a9 73 45 bd 33 25 9d bd 8e 00 fa bc 8b c3 83 bd
       -0.048206005 -0.07673111 -0.030517843 -0.06433781
000180 ab 72 16 bd 3b c0 67 bd 82 90 ff 3c d2 af 49 be
       -0.03673045 -0.05657981 0.031196836 -0.19695976
000190 20 d6 3d be f0 0a 79 be fe 9b 91 bd ec 5e 2a be
       -0.18538713 -0.24320579 -0.07109831 -0.16637772
0001a0 a8 95 11 be 4f 7f e3 bd 94 cf 1b be d5 6e 86 be
       -0.14217246 -0.111082666 -0.15215904 -0.26256433
0001b0 43 11 2c bd d9 83 db bb 6d 1f 63 bd be d7 c2 3c
       -0.04200865 -0.006699067 -0.05544989 0.023784515
0001c0 90 ae da bc 11 db f8 3c 06 21 2a 3c b3 46 9c bc
       -0.026694566 0.030377897 0.01038385 -0.01907668
0001d0 39 af ae 38 2a 31 2e be 00 4a 54 be 25 ed 37 be
       8.329604e-05 -0.17010942 -0.20731354 -0.17961557
0001e0 52 d5 4c be 1a 28 22 be c8 f0 9d bd 7f da 09 be
       -0.2000325 -0.1583561 -0.07711941 -0.13462256
0001f0 9f 3c 46 be 20 17 95 bd 8c 1a 79 bc b8 ff 0a be
       -0.19359063 -0.07279801 -0.015204083 -0.13574111
000200 b6 4b 30 be 3f 78 56 bd 1f 12 03 be e4 96 b3 bd
       -0.17216381 -0.05236077 -0.12799881 -0.087690145
000210 74 68 06 be 89 69 a6 bd b6 32 2f be 98 8b 28 3d
       -0.13125783 -0.08125598 -0.17109188 0.041148752
000220 f0 85 ea bc 6e 3a 9d 3c 68 af 90 bd 74 91 14 bd
       -0.02862832 0.0191929 -0.07064706 -0.036271527
000230 bc 40 21 3d ff 3c c6 bc c5 53 08 3a 8a a4 20 bb
       0.039368376 -0.024199007 0.0005200471 -0.0024512135
000240 bb 71 35 3d 15 1c 4d bd a8 54 0d 3c cb 98 3a 3d
       0.044297915 -0.05007561 0.008626141 0.04555587
000250 dc 1a fd bc 0d 72 be bc 0d 15 35 bd 8c d2 ed ba
       -0.030896597 -0.023247743 -0.04420953 -0.0018144413
000260 e9 7b bb bb 3d 2f a7 bd 0f 9f c6 bd 6a 39 e8 bd
       -0.0057215584 -0.08163307 -0.09698307 -0.11339076
000270 fc d3 e4 bd b5 3a 8c bd ef 04 25 be 1c 64 04 be
       -0.11173245 -0.06847135 -0.16115163 -0.12928814
000280 1e c5 95 bd 93 4c f1 bd f3 51 a8 bd 75 f5 0d bd
       -0.07312988 -0.117821835 -0.082187556 -0.034657914
000290 f3 b7 95 bd 99 df db bd 32 7e 0d bd aa 87 86 bd
       -0.07310476 -0.10736007 -0.034544177 -0.065688446
0002a0 54 db bc bd f2 6c 58 bc 3a c4 d0 bc c4 38 c2 bc
       -0.09221521 -0.013209568 -0.025484193 -0.023708709
0002b0 38 b0 0b bd 16 e8 96 bd a5 ac c9 3c cc a3 17 be
       -0.034103602 -0.07368486 0.024618456 -0.14808577
0002c0 7a a7 72 3d 79 3d 91 39 eb d7 09 be 73 9c 75 bd
       0.05924175 0.00027702356 -0.13461272 -0.059963655
0002d0 5d 2e d7 bd e1 0d a0 bd a0 ba 57 bd 4e 03 97 bd
       -0.1050689 -0.07815147 -0.052668214 -0.07373677
0002e0 cc 75 34 be 7a a4 89 bd 7f c7 17 bd 62 ee c5 bd
       -0.17623061 -0.067208245 -0.03705549 -0.096646085
0002f0 ec 07 6c bd 61 02 29 be 1c 77 4f be 90 d6 39 be
       -0.057624742 -0.16504814 -0.2026028 -0.18148255
000300 7c 3c 5e be c4 db 38 be 1e d3 95 bd 07 c6 23 be
       -0.2170276 -0.18052584 -0.07315658 -0.1599351
000310 30 a8 3b be 32 a9 78 bd 6f c9 b0 bb 25 a4 b7 bd
       -0.18325877 -0.060708232 -0.0053951065 -0.08966855
000320 fb 65 95 be 57 b2 5a bd 40 32 3d 3d 54 01 2c be
       -0.29179367 -0.053392734 0.0461905 -0.16797382
000330 4c 2e 6e bd 6e 8e dd 3c 17 7c 14 be c8 b9 a4 bd
       -0.05814962 0.027045455 -0.14500462 -0.080432475
000340 fe 18 02 be 0a 76 62 be 84 3a 1d be b4 48 44 be
       -0.12704846 -0.22115341 -0.15354353 -0.19168359
000350 14 b5 15 be 85 da 1a 3b b5 bd 35 be 74 08 1d be
       -0.14619857 0.0023628783 -0.17748149 -0.15335256
000360 d9 fe 2f bd 0b bb a6 3c ff e3 b6 3c 3f 39 33 3d
       -0.04296765 0.02035286 0.022325514 0.043755766
000370 f7 5a 9e bc d1 9e 22 bb 6f 72 3a bd 5f ac 95 bd
       -0.019330485 -0.00248139 -0.04551929 -0.07308268
000380 59 1a 71 bb b0 34 b6 bd ac f3 98 bd d4 60 0b 3c
       -0.0036789386 -0.08896768 -0.07468352 0.008506972
000390 5e bd d1 bd f4 68 b2 3c 72 b2 02 3d c2 7f a1 bd
       -0.10241197 0.021778561 0.03190846 -0.07885696
0003a0 35 1e 44 bd a2 a2 ea bc 65 20 4c be 33 b1 9f be
       -0.04788037 -0.028642002 -0.19934233 -0.3118988
0003b0 00 9c 86 be f1 90 2b be f5 04 12 be 2b 12 a2 be
       -0.26290894 -0.1675451 -0.14259703 -0.31654486
0003c0 71 00 9b 3b 2e 4f 63 be 0b af 91 be 7d 30 9a 3c
       0.004730277 -0.22198173 -0.2845386 0.01882195
0003d0 9d 3b ed bb ec 2a 2b bc 25 2e 6e bd 64 2d 86 bc
       -0.0072397725 -0.010447245 -0.058149476 -0.016379066
0003e0 63 c1 23 bb 03 47 b5 3c 10 f3 13 3c 41 ce 0f 3d
       -0.0024987094 0.022128588 0.009030119 0.03510881
0003f0 01 f8 bf bc c5 b1 17 3d 96 c2 ad bc 29 99 45 3d
       -0.023433687 0.03703477 -0.02121095 0.048241768

conv.4.bias f4 [64]
000000 81 5f 09 be 6e f8 03 3e 15 4d 80 bf 2d a9 c5 be
       -0.13415338 0.12887737 -1.0023524 -0.38605633
000010 7f ee 61 be 40 e9 1d be 00 bc 23 be 08 cd e1 bc
       -0.22063635 -0.15421009 -0.15989685 -0.027563587
000020 63 bf c1 3d 4a b3 7f 3e 36 a7 e6 bd 32 fb a8 be
       0.09460332 0.24970737 -0.11262362 -0.33004147
000030 ec cc 14 be 01 bd e6 be a4 e9 00 be 41 d6 42 3e
       -0.14531296 -0.45066074 -0.12589127 0.19027044
000040 be a7 08 be 05 2e 07 be 2b 53 d9 bd 7e 46 0e bf
       -0.13345239 -0.13201149 -0.10611566 -0.5557631
000050 78 3d 3d be ec fa f1 bd 98 c1 0d be 6e f3 0b 3d
       -0.1848048 -0.11815438 -0.13843381 0.0341677
000060 cc 4b 25 bd cf 22 33 bf 90 52 63 be bb 57 d6 bd
       -0.04035549 -0.6997499 -0.22199464 -0.10465952
000070 24 f3 58 be 6f 20 aa 3e 38 66 cb be ec b8 35 be
       -0.21186501 0.3322787 -0.39726424 -0.17746323
000080 1e 92 3c be 57 b7 72 be 15 7d fa be 4c dc 3c bd
       -0.18415114 -0.23702751 -0.48923555 -0.04610853
000090 67 d5 2f be 1d cd d5 be d0 1e 16 bf 8c 78 79 3e
       -0.1717125 -0.41758052 -0.58640766 0.24362391
0000a0 ba fa 71 be 25 73 e6 bd ec e7 19 bd 11 ee 56 be
       -0.23630801 -0.11252431 -0.037574694 -0.20989253
0000b0 96 4b 38 bd f1 3e 33 be 21 f5 66 bf 83 f3 b9 bd
       -0.04499396 -0.17504479 -0.9021779 -0.09079649
0000c0 e4 62 7b bf 8f d4 65 be 3d b7 5a be 03 58 36 be
       -0.9819777 -0.22444366 -0.21358962 -0.17807011
0000d0 74 d4 2b 3e be e4 25 be 4b d1 74 bf c3 0a 36 be
       0.16780263 -0.1620054 -0.95631856 -0.17777543
0000e0 2a d0 fd 3e a4 75 54 3e 55 f7 4d bf 97 9c a0 be
       0.4957288 0.20748001 -0.80455524 -0.3136947
0000f0 fa 4d f1 3e ed 95 0b be da 58 63 be 40 20 e4 3d
       0.47129804 -0.13631411 -0.22201863 0.11138964

fc.weight f4 [2, 64]
000000 33 80 16 bd 98 b4 81 3f 00 a2 2b be 0e 6c d7 be
       -0.036743354 1.0133238 -0.16761017 -0.42074627
000010 a5 1a dc 3d ce e7 12 3c 2c f4 7d 3c bb f6 c5 3f
       0.107472695 0.008966399 0.01550011 1.5465921
000020 0c 47 86 3f bc b7 c3 3e c7 c2 15 3f 63 f5 80 3f
       1.0490432 0.38226116 0.5850033 1.0074886
000030 7c 93 09 3e 8e 0a b2 3f de 02 a8 3f 38 37 bd 3f
       0.13435167 1.3909471 1.3125875 1.4782476
000040 af a9 09 3d 3b 72 f5 bf 10 2f d3 3b 91 d9 b9 bf
       0.03360909 -1.9175485 0.0064448193 -1.4519521
000050 41 9e ca 3f 5c bb e8 be dd c3 e5 3e a9 32 83 3f
       1.5829545 -0.45455444 0.44875994 1.0249835
000060 a3 60 97 bf b4 41 d3 3f 11 bb a0 bf 10 b0 fc 3f
       -1.1826366 1.6504426 -1.2557088 1.974123
000070 8b 3d ca bc 5e 43 d3 be 3c a9 19 3f 5f 3f a9 3f
       -0.02468755 -0.41262335 0.60023856 1.3222464
000080 65 d4 90 3f 30 a6 b0 3b 5a f5 fd bf f1 b9 08 3f
       1.1314818 0.005390905 -1.98405 0.53408724
000090 a6 36 9d bf 22 24 ac be 44 47 bb 3e cc e4 ba 3f
       -1.2282302 -0.33621317 0.3657781 1.4601073
0000a0 30 82 a3 bf 55 6f cc 3e bc 7b 9c 3f 74 1a 3c 3e
       -1.2774105 0.3992869 1.2225261 0.18369466
0000b0 82 82 85 3f b1 37 0c bf 34 ef 26 3f 0f 5d d4 3e
       1.0430453 -0.5477248 0.65208745 0.41477248
0000c0 3b 9d 11 bf 22 9f 68 3e 75 38 67 bf 0d fe 1d bf
       -0.5688054 0.22716954 -0.9032052 -0.61715776
0000d0 5a 36 7a 3f e0 70 b2 bd fa 1e 9f 3f 20 52 d2 3f
       0.97739184 -0.087129354 1.2431328 1.6431313
0000e0 7c 53 1f 3e bd a4 14 3f d5 45 a5 3f 65 c8 00 3e
       0.1555919 0.5806387 1.2911936 0.12576444
0000f0 95 da c7 3d 41 48 3d 3e 8d 88 b4 3e 21 be 90 be
       0.09758488 0.18484594 0.3526043 -0.28270057
000100 46 b0 8e 3c 6c 0b 2f 3f 2b df 3e 3f ed 87 15 3d
       0.017418038 0.68376803 0.7455928 0.036506582
000110 dd 89 bf 3b c1 69 82 3d 8c 91 bd bc 9c 80 40 3e
       0.005845292 0.06367827 -0.023140691 0.1879906
000120 09 03 97 3f 33 77 56 3e 94 af 54 bf 46 d6 13 bd
       1.1797801 0.20943908 -0.8308041 -0.03609302
000130 ad fa 14 3d 7c f6 0b bf 45 78 a1 be f9 81 48 bf
       0.036371876 -0.5467298 -0.3153707 -0.7832332
000140 cb 02 15 bb 20 77 5e bf e3 20 73 3c c8 f3 d7 be
       -0.002273726 -0.8690052 0.014839384 -0.42178178
000150 e8 30 58 bf 34 33 23 40 b6 8e 83 bf 75 fe 47 3f
       -0.84449625 2.5500002 -1.0277927 0.78122646
000160 1f cd 4e bf 48 f5 83 3d 05 56 83 3f 13 4b c2 3c
       -0.8078174 0.06443268 1.0260626 0.023717439
000170 e3 90 4b 3b 1f 05 2a 3f 85 8f 7d 3f 1a f2 78 3f
       0.00310617 0.66414064 0.9904712 0.9724442
000180 85 b0 b4 bd d4 d5 75 bc 04 72 ed bd ab 86 95 3f
       -0.08822731 -0.015004594 -0.115940124 1.1681722
000190 d0 a4 86 bf 1e 67 92 be df d7 be 3f 35 b0 9f be
       -1.0519047 -0.28594297 1.4909629 -0.31189123
0001a0 7e 3d 46 3f dc 06 79 bf f4 b7 7a 3f 78 03 0c bc
       0.7743758 -0.9727609 0.9793694 -0.008545749
0001b0 a1 68 1a 3f 36 9d 75 bf f8 5d 2b 3f 63 03 93 3f
       0.603159 -0.9594301 0.6694026 1.1485409
0001c0 9a cb c1 3e 89 13 56 bf 57 89 0d 3f 1e df 06 3f
       0.37850648 -0.8362356 0.5528769 0.526842
0001d0 95 63 c2 bf 8f 16 a5 bf 51 cc 55 3e f2 61 48 3f
       -1.518664 -1.2897509 0.20878722 0.7827445
0001e0 37 4c 09 3f 22 62 24 3f 37 e1 ed 3e fd 3d 44 bc
       0.5363192 0.6421224 0.46460888 -0.01197767
0001f0 65 7a 11 3f dd 4b 3d 3b cc c7 2d bf bf 8c 8a bf
       0.56827384 0.002888433 -0.6788299 -1.0824202

fc.bias f4 [2]
000000 aa f9 42 3e a7 77 99 3a
       0.19040552 0.0011708633
