model_2.onnx (onnx, 96888 bytes, 8 tensors)

conv.0.weight f4 [16, 3, 3, 3]
-0.269121 -0.34329692 -0.14699596 -0.12162447 0.3189083 0.52079946 0.24033177 0.7255004
0.93487823 -0.82394457 -0.6679119 -0.362466 -0.6791285 0.28815487 0.26925358 0.051255107
0.3627735 0.887201 -0.6210236 -0.5075027 -0.46121848 -0.5927111 0.19365413 0.33607963
-0.14432323 0.2460738 0.7069702 -0.00021414111 0.009226598 -0.050201774 0.045730423 -0.011221314
0.051439304 -0.027739117 -0.10968364 -0.034560017 0.122183144 -0.21276928 -0.08615673 -0.064741
-0.17981501 -0.041338142 -0.09978505 0.007511755 -0.23265485 0.024164012 -0.05915992 0.008414002
0.14997758 -0.12168915 0.1180423 -0.030489804 -0.06372681 0.017868364 0.27909786 0.31516564
0.21694128 0.15000801 0.23238964 0.13985518 0.32091293 0.026446955 0.18185116 -0.6377655
-0.7120666 -0.6114519 -0.76500624 -0.55023676 -0.51767313 -0.5810737 -0.39915353 -0.2649165
-0.2193158 -0.3918684 -0.42309135 -0.31176275 -0.36034492 -0.4651169 -0.22498307 -0.19007887
-0.11306687 0.114350334 0.00813292 0.007822963 -0.16231115 -0.11142177 0.037382763 -0.16118109
-0.033801526 -0.1385132 -0.1919318 -0.1383709 0.14619164 -0.19279854 -0.05329586 0.008761572
-0.17327464 0.16546343 -0.00502055 -0.04508881 -0.15587752 -0.18571441 -0.016334506 -0.07946793
-0.21166685 -0.05728527 -0.20208491 -0.019603912 0.5855806 0.4912863 0.5444472 0.2340883
0.22839202 0.49110147 -0.6634473 -0.522741 -0.4413245 0.34762868 0.29539344 0.28958648
0.013400523 0.15233462 0.49551672 -1.0634077 -1.3552381 -0.5490726 0.60281307 0.35942134
0.35171887 0.21749967 0.285391 0.520849 -0.9059639 -0.90262705 -0.49157655 0.05424354
-0.19755234 -0.14122805 -0.10220863 -0.14009935 0.10545622 -0.20119326 -0.13166746 -0.15590313
-0.11710947 0.13985814 0.12323916 -0.19572172 -0.08568287 -0.0014467706 -0.030635787 0.15416983
0.12449487 -0.18254474 -0.2165195 0.03460969 -0.13767727 -0.025603667 -0.17088121 0.09584888
0.09228893 0.04189497 -0.8106495 -0.4379381 0.64902794 -0.89934486 -0.029311744 0.64844835
-0.9578768 -0.37373132 0.43147287 -0.1851224 0.50004184 1.0827152 -0.42211393 0.34667584
1.5526757 -0.5299429 0.17836553 1.3889068 -0.5288093 -0.26700032 0.5090254 -0.38452473
0.14258534 0.6500567 -0.44174847 0.04174678 0.9159184 0.2281195 0.40005976 -0.0067436476
0.29025036 0.13858515 0.015400396 0.021704119 -0.066693805 -0.32458165 0.35834074 0.5579541
-0.039166737 0.14062122 0.05222734 -0.0056833234 0.13338123 0.27451786 0.06943325 -0.761393
-0.32560834 -1.0504987 -0.8663948 -1.0771154 -0.84148073 -0.81060183 -0.96998334 -1.220055
-0.09324257 -0.10364628 -0.1610837 -0.15608317 0.07068608 -0.08134622 -0.24719903 -0.23352788
-0.23833402 -1.8279297 -1.6031443 -1.1584581 -1.5092367 -1.8044894 -1.3457488 -1.4590684
-1.037276 -0.92836636 0.10788041 -0.017114542 0.13425398 0.09483925 0.11928257 0.11275846
0.1407531 0.040140368 0.0046340204 0.10904959 -0.05549947 -0.07076987 0.2350034 0.24720895
0.26768127 0.0668097 0.36870363 0.3380404 0.27121723 0.11076359 0.22568683 0.22478092
00000000: 3aca 89be 9dc4 afbe 1c86 16be 4016 f9bd
00000010: f347 a33e 1d53 053f 8819 763e 65ba 393f
00000020: 2e54 6f3f 08ee 52bf 46fc 2abf 2595 b9be
00000030: 5edb 2dbf 0989 933e 9bdb 893e e0f0 513d
00000040: 73bd b93e 9b1f 633f 67fb 1ebf b2eb 01bf
00000050: d424 ecbe eabb 17bf 454d 463e a112 ac3e
00000060: 78c9 13be c5fa 7b3e 00fc 343f 118b 60b9
00000070: 282b 173c 60a0 4dbd d34f 3b3d 9ad9 37bc
00000080: 05b2 523d 253d e3bc d1a1 e0bd ce8e 0dbd
00000090: 283b fa3d 31e0 59be f172 b0bd ee96 84bd
000000a0: 6d21 38be 2f52 29bd 1b5c ccbd 2b25 f63b
000000b0: 133d 6ebe 9bf3 c53c ac51 72bd e2da 093c
000000c0: b993 193e 2938 f9bd 29c0 f13d c1c5 f9bc
000000d0: 3483 82bd ad60 923c eae5 8e3e 645d a13e
000000e0: db25 5e3e b39b 193e 8df7 6d3e 3236 0f3e
000000f0: b34e a43e 49a7 d83c 3137 3a3e 9a44 23bf
00000100: ff49 36bf 1d88 1cbf 73d7 43bf 51dc 0cbf
00000110: 3a86 04bf 3fc1 14bf da5d ccbe 23a3 87be
00000120: 5294 60be faa2 c8be 6e9f d8be 5e9f 9fbe
00000130: 217f b8be cd23 eebe f661 66be 09a4 42be
00000140: 9a8f e7bd 8230 ea3d f03f 053c e32b 003c
00000150: e534 26be 1931 e4bd ab1e 193d a80c 25be
00000160: 7873 0abd 68d6 0dbe c589 44be 1ab1 0dbe
00000170: 43b3 153e fb6c 45be c24c 5abd b28c 0f3c
00000180: e86e 31be 3f6f 293e 6d83 a4bb 0baf 38bd
00000190: 5b9e 1fbe eb2b 3ebe f1cf 85bc 15c0 a2bd
000001a0: 32bf 58be f6a3 6abd 59ef 4ebe 6298 a0bc
000001b0: 9ce8 153f e189 fb3e e460 0b3f d8b4 6f3e
000001c0: 99df 693e a771 fb3e afd7 29bf 5bd2 05bf
000001d0: 49f5 e1be 63fc b13e cf3d 973e ae44 943e
000001e0: de8d 5b3c 9bfd 1b3e 5eb4 fd3e be1d 88bf
000001f0: 7178 adbf 0690 0cbf f551 1a3f 1306 b83e
00000200: 7f14 b43e 3cb8 5e3e c51e 923e 5c56 053f
00000210: 40ed 67bf 9112 67bf ecaf fbbe 792e 5e3d
00000220: 294b 4abe 169e 10be c252 d1bd 3476 0fbe
00000230: 6ef9 d73d 9b05 4ebe d6d3 06be 12a5 1fbe
00000240: 17d7 efbd f936 0f3e d064 fc3d 466b 48be
00000250: 807a afbd 91a1 bdba e7f7 fabc b2de 1d3e
00000260: 2bf7 fe3d 02ed 3abe 4ab7 5dbe e4c2 0d3d
00000270: 45fb 0cbe c8be d1bc 7cfb 2ebe 6b4c c43d
00000280: fb01 bd3d 0f9a 2b3d ba86 4fbf 6c39 e0be
00000290: b226 263f 773b 66bf 2f1f f0bc b600 263f
000002a0: 6a37 75bf b659 bfbe 03ea dc3e ba90 3dbe
000002b0: be02 003f 6996 8a3f 511f d8be 7f7f b13e
000002c0: 14be c63f 57aa 07bf 74a5 363e b3c7 b13f
000002d0: 0c60 07bf 44b4 88be 7d4f 023f 6de0 c4be
000002e0: e401 123e 1e6a 263f db2c e2be acfe 2a3d
000002f0: a179 6a3f 2998 693e a2d4 cc3e d1f9 dcbb
00000300: b29b 943e 44e9 0d3e f151 7c3c d6cc b13c
00000310: c396 88bd 912f a6be 7078 b73e 14d6 0e3f
00000320: 4d6d 20bd 02ff 0f3e 56ec 553d 2c3b babb
00000330: 1795 083e 9b8d 8c3e 0533 8e3d a7ea 42bf
00000340: 23b6 a6be be76 86bf 0dcc 5dbf ebde 89bf
00000350: 486b 57bf 9a83 4fbf d450 78bf c32a 9cbf
00000360: f6f5 bebd 8044 d4bd 20f3 24be 44d4 1fbe
00000370: ddc3 903d d998 a6bd be21 7dbe ef21 6fbe
00000380: d50d 74be 9af9 e9bf d533 cdbf 5b48 94bf
00000390: ab2e c1bf 82f9 e6bf 7f41 acbf c1c2 babf
000003a0: 76c5 84bf 6ba9 6dbf 68f0 dc3d cc33 8cbc
000003b0: e079 093e 153b c23d 6c4a f43d e8ed e63d
000003c0: 9521 103e 3a6a 243d fbd8 973b 6455 df3d
000003d0: 6a53 63bd cbef 90bd bba4 703e 5824 7d3e
000003e0: 850d 893e 86d3 883d b9c6 bc3e a213 ad3e
000003f0: fcdc 8a3e 05d8 e23d 731a 673e f82c 663e

conv.0.bias f4 [16]
-0.29124355 -0.2154138 0.5205378 0.0025415241 -0.042562976 -0.088058405 -0.50804883 0.13434482
0.5564479 -0.2949658 -0.265897 0.3754901 0.5298754 0.15069252 -0.15052852 -0.054490793
00000000: e01d 95be 6f95 5cbe f741 053f b38f 263b
00000010: 8456 2ebd f757 b4bd 7d0f 02bf b091 093e
00000020: 5f73 0e3f c205 97be a723 88be 3d40 c03e
00000030: eaa5 073f 244f 1a3e 2624 1abe bd31 5fbd

conv.2.weight f4 [32, 16, 3, 3]
0.05776855 -0.088581316 -0.21339263 -0.57447535 -0.47523645 0.41727957 0.53745663 -0.40776005
-0.35125408 0.008333862 0.07921062 -0.04498688 0.035071276 0.04039319 0.071055666 0.0650801
-0.032477643 0.03557477 -0.6596952 -1.1857693 -0.70637685 -1.1298934 -0.8720285 -0.14534856
-1.4737992 -1.2334281 -0.89876366 0.074049376 0.075527534 -0.008457491 -0.056608036 0.027638383
0.0995633 -0.05711944 0.03160474 0.12222366 0.7584956 -0.05723897 -0.7697752 0.3451868
0.92036945 -0.37682647 -0.33652645 0.2673938 1.683554 0.08027877 0.06378926 -0.011692676
0.024190448 -0.014096773 0.057661146 0.0081009865 -0.058444835 0.06857376 0.5116992 0.3421768
-0.09924928 -0.26604885 1.0331095 0.26560843 -1.0752678 -0.94108135 0.18153237 0.24690464
-0.47762653 -0.35008052 -0.090746745 -0.19478941 -0.8037665 -0.14366248 -0.11901634 -0.65978867
-1.0096668 -0.3955888 -0.48600674 -1.1773885 -0.5503372 0.08243398 -1.3394034 -0.6731322
-0.471859 0.4069594 0.47869378 0.23728874 0.26449892 0.48162684 0.07700173 0.27172127
0.3274831 -0.065712616 -0.18421036 -0.21491596 -0.037581287 -0.014477522 -0.041027114 -0.1987545
-0.16618253 -0.11604235 -0.12421835 -0.05348695 0.1226243 -0.032336906 -0.051237706 -0.63788235
-0.05092255 -0.7754295 -1.3767387 -0.8513232 0.7895954 0.78506565 0.5870237 0.5179077
0.5166001 0.9752453 -0.89370894 -1.3214548 -0.29207605 -0.45838308 -1.4002141 0.4137742
0.08829037 -2.280018 -0.616676 0.23921625 -1.0778849 -0.07755272 0.6551689 -0.40074068
0.13408402 0.7219845 -0.2928931 -0.25190938 -0.10673396 -0.615631 -0.48935533 -0.013017456
-0.021110557 0.08416324 -0.021521656 0.07716291 0.023723742 0.049328722 -0.047293223 0.031539086
-0.38672426 -0.21409872 -0.15392761 0.7606019 0.5319863 0.2368733 0.089108326 -0.008174921
0.20340836 -0.06693593 0.046685215 0.04805725 -0.0027364364 0.018063003 -0.00025141094 -0.04817472
-0.047530867 -0.07241862 -0.117953785 -0.5087399 -0.24334528 -0.6680866 -0.34327614 -0.066632
-0.4077658 -0.18234614 0.1390579 0.063122734 0.021104744 -0.024174135 -0.022241294 0.02355484
-0.06320315 -0.0740689 0.043732777 0.072221614 -0.49671614 -0.35341686 -0.063730866 -0.19369715
-0.31280383 -0.711819 0.12659003 -0.0067103896 0.26327425 0.011827405 -0.016198756 -0.009606791
0.06863448 -0.016161643 0.07738852 -0.022216318 0.04557162 -0.064156786 -0.1257076 -0.41141668
-0.30497748 0.067466855 -0.20386992 -0.47359505 0.17982161 0.025287379 -0.17262669 0.16418788
-0.10352533 -0.2697533 0.13419923 0.071472995 0.1319515 0.19936657 -0.07945098 0.12566029
-0.15329956 -0.30641392 -0.16857249 0.031359557 -0.04812011 -0.11594749 0.09885132 0.026219869
0.021713896 -0.22496547 -0.47611028 -0.4911455 0.23909582 -0.22769752 -0.19278176 -0.025482418
-0.007481582 0.20485151 -0.039745066 -0.08131983 -0.11385721 -0.08769381 -0.18098453 -0.018761083
-0.11254223 -0.083196074 -0.14493196 -0.309906 -0.3845688 -0.25147483 -0.51257354 -0.25418413
-0.09036805 -0.28052002 -0.37803683 0.10198764 -0.031556163 -0.037301727 -0.34601554 -0.08519675
00000000: b79e 6c3d 1f6a b5bd 9983 5abe d110 13bf
00000010: 3152 f3be aba5 d53e c296 093f edc5 d0be
00000020: 93d7 b3be c08a 083c 2d39 a23d 2a44 38bd
00000030: e6a6 0f3d 5473 253d a285 913d b748 853d
00000040: 4707 05bd dab6 113d c9e1 28bf 4ac7 97bf
00000050: 1dd5 34bf 59a0 90bf 433d 5fbf 41d6 14be
00000060: 74a5 bcbf f9e0 9dbf 6015 66bf 33a7 973d
00000070: 2eae 9a3d 4a91 0abc d4dd 67bd e469 e23c
00000080: d8e7 cb3d 13f6 69bd f973 013d 6650 fa3d
00000090: c52c 423f 6973 6abd fd0f 45bf 53bc b03e
000000a0: 559d 6b3f 66ef c0be 324d acbe d7e7 883e
000000b0: b37e d73f 3269 a43d f2a3 823d a392 3fbc
000000c0: 0c2b c63c 27f6 66bc 182e 6c3d 00ba 043c
000000d0: da63 6fbd 6670 8c3d b8fe 023f cc31 af3e
000000e0: 3543 cbbd 8e37 88be ef3c 843f d4fd 873e
000000f0: 60a2 89bf b5ea 70bf 9fe3 393e 92d4 7c3e
00000100: 778b f4be c13d b3be 6ed9 b9bd e076 47be
00000110: a4c3 4dbf 421c 13be d7be f3bd e9e7 28bf
00000120: c33c 81bf 9d8a cabe e0d5 f8be abb4 96bf
00000130: e6e2 0cbf 26d3 a83d 9271 abbf 6452 2cbf
00000140: 8197 f1be fc5c d03e 5a17 f53e d2fb 723e
00000150: 676c 873e cb97 f63e 15b3 9d3d 0d1f 8b3e
00000160: ddab a73e 5694 86bd a4a1 3cbe ee12 5cbe
00000170: d6ee 19bd 2133 6dbc 0c0c 28bd 4d86 4bbe
00000180: c12b 2abe 9da7 edbd 3166 febd 2215 5bbd
00000190: 7322 fb3d b473 04bd a1de 51bd 424c 23bf
000001a0: 2a94 50bd 8c82 46bf f938 b0bf 51f0 59bf
000001b0: ed22 4a3f 10fa 483f 2f47 163f 9995 043f
000001c0: e73f 043f ada9 793f 1cca 64bf 6e25 a9bf
000001d0: fe8a 95be 30b1 eabe 373a b3bf 36da d33e
000001e0: 95d1 b43d d1eb 11c0 7ade 1dbf 1bf5 743e
000001f0: 22f8 89bf f6d3 9ebd 26b9 273f e22d cdbe
00000200: 524d 093e fad3 383f 16f6 95be 44fa 80be
00000210: 5697 dabd fe99 1dbf c88c fabe 2b47 55bc
00000220: 0cf0 acbc c75d ac3d 2f4e b0bc 9607 9e3d
00000230: 4b58 c23c ea0c 4a3d 8ab6 41bd 212f 013d
00000240: b900 c6be b23c 5bbe 339f 1dbe ceb6 423f
00000250: 4130 083f ea8e 723e 6d7e b63d 1bf0 05bc
00000260: 484a 503e b415 89bd ff38 3f3d aed7 443d
00000270: c955 33bb ddf8 933c cecf 83b9 db52 45bd
00000280: baaf 42bd 3750 94bd c191 f1bd c73c 02bf
00000290: 812f 79be b907 2bbf e4c1 afbe 5c76 88bd
000002a0: aec6 d0be f2b8 3abe 3265 0e3e 7e46 813d
000002b0: dbe3 ac3c d608 c6bc 6033 b6bc 14f6 c03c
000002c0: a770 81bd 6fb1 97bd 2421 333d ede8 933d
000002d0: 9451 febe 0ef3 b4be 5485 82bd 8c58 46be
000002e0: d327 a0be c539 36bf d1a0 013e d4e2 dbbb
000002f0: e2cb 863e bbc7 413c 41b3 84bc cd65 1dbc
00000300: 3c90 8c3d 6c65 84bc df7d 9e3d fffe b5bc
00000310: 4fa9 3a3d a264 83bd 7eb9 00be 35a5 d2be
00000320: 0226 9cbe 102c 8a3d 47c3 50be 0d7b f2be
00000330: 2823 383e 7a27 cf3c 0dc5 30be de20 283e
00000340: 1705 d4bd 1b1d 8abe 866b 093e 6f60 923d
00000350: 4b1e 073e c026 4c3e 32b7 a2bd 17ad 003e
00000360: 8ffa 1cbe 49e2 9cbe 449e 2cbe e172 003d
00000370: 9819 45bd e175 edbd 9072 ca3d 0dcb d63c
00000380: 57e1 b13c 595d 66be bac4 f3be 6c77 fbbe
00000390: 89d5 743e 8a29 69be 9568 45be 81c0 d0bc
000003a0: 0f28 f5bb 98c4 513e b9cb 22bd 038b a6bd
000003b0: f82d e9bd d098 b3bd 0254 39be d8b0 99bc
000003c0: 8a7c e6bd b462 aabd 0b69 14be 00ac 9ebe
000003d0: 34e6 c4be 4fc1 80be 0538 03bf 6c24 82be
000003e0: e212 b9bd 52a0 8fbe 0b8e c1be e5de d03d
000003f0: 0941 01bd b2c9 18bd f328 b1be a27b aebd

conv.2.bias f4 [32]
-0.14342548 -0.2462134 -0.038438924 -0.15421005 -1.4885882 -0.25429225 -0.8344814 -1.0777647
-0.30346885 -0.112995766 -0.6201388 -0.21298261 -0.072222784 -0.38138404 0.14062533 0.10705185
-0.45734853 -0.12534866 0.30173808 -0.553021 -0.0043442505 -0.5682034 -0.13344096 -0.34648776
-0.18453418 -0.020994151 -0.56912935 0.0057723243 -0.25639382 -0.27498809 -0.12825406 -0.07815477
00000000: 21de 12be 5e1f 7cbe 2272 1dbd 3de9 1dbe
00000010: 0f8a bebf 9832 82be 93a0 55bf 32f4 89bf
00000020: 4560 9bbe 536a e7bd 6bc1 1ebf 1d18 5abe
00000030: 8ae9 93bd c544 c3be 1600 103e 003e db3d
00000040: 9629 eabe 665b 00be 6a7d 9a3e c992 0dbf
00000050: 375a 8ebb c775 11bf bfa4 08be d866 b1be
00000060: 87f6 3cbe edfb abbc 76b2 11bf c425 bd3b
00000070: 0d46 83be 3dcb 8cbe 0855 03be 9c0f a0bd

conv.4.weight f4 [64, 32, 3, 3]
-1.302769 -1.25509 -1.6405607 -0.82946473 -0.69332266 -1.1417172 -2.1751914 -1.9345131
-2.5368674 0.04894614 0.0622509 -0.3389302 -0.35529545 0.33388942 0.120603085 -0.08608237
0.5589623 0.17990951 0.013305884 -0.2556335 -0.5934978 0.0656566 -0.7233322 -0.0035161623
-0.44727114 0.11851217 0.3995334 -0.04634592 0.030879501 -0.011298228 -0.0006529782 0.026079062
0.0019241013 -0.031883825 0.033273067 -0.045577534 -0.49815 -0.03776632 -0.13663451 -0.11957295
0.26919302 -0.79967225 -0.006479805 -0.19999531 -0.9426733 -0.04038074 -0.05107647 0.015729541
-0.049050678 -0.03565697 -0.030795068 0.001125028 -0.04841807 -0.005898677 0.04711499 0.66962755
0.27738515 0.60733914 -1.335202 -0.8329351 0.018241765 -1.3472401 -2.424521 -0.51878285
0.05042723 -0.5646976 -0.12685286 0.14170419 -1.5322355 -0.3502884 -1.3273361 -1.4587452
0.5734499 0.89869386 0.32605186 1.0582223 -0.127873 -0.1398947 0.33899307 -0.55368644
0.24714763 -0.64358366 -1.3644862 -1.5743027 -0.3527868 -0.73447305 -1.160455 -0.77226454
-2.004036 -0.7771062 -0.68139577 0.11822069 0.42134058 -0.66031474 0.13520537 -0.50001216
0.59799355 0.23689346 -1.8947266 0.04925069 0.051749934 0.050119374 -0.01423325 0.00046034902
0.02880558 -0.0003683716 -0.015943646 0.013640564 -1.9274855 1.195382 0.77388376 1.5431836
1.0262438 -1.6237956 1.0849346 0.116539426 -1.4825814 -0.15278314 0.24843314 -0.25783044
-0.07304921 0.001771474 0.004288236 -0.29263446 0.24960871 0.15398236 -0.6651606 0.19379774
0.09152796 0.36665386 0.25134674 -0.3861061 0.040961795 -0.06785404 -0.027183035 -0.5453686
-1.6417438 0.7203707 -0.0066943653 -0.2601261 0.9520282 0.946679 -0.3749348 -0.022309883
0.48976314 0.6368156 -0.14912544 0.6678767 0.7108081 -2.008706 0.02740143 -0.55303437
0.070605755 -0.46496382 -0.07758348 -0.112838104 -0.5821943 -0.13034327 -0.37977815 -0.33994576
-0.02615767 -0.8274301 -0.080804035 0.2936298 -0.11659489 0.006112972 -0.054992247 -0.465524
-0.023365801 -0.21097593 -0.28155568 -0.18876871 -0.44439983 -0.18309835 -0.77394885 -0.5714446
0.10501037 -0.12228634 -0.76005733 0.34989813 -0.1343001 0.12809312 -0.4558361 -0.2831787
-0.5348013 -0.5173336 -0.2673819 -0.58557403 -0.38040927 -0.30051634 0.46534538 0.3224457
0.03617935 0.12867048 -0.831088 0.37566262 -0.8942906 -2.275065 0.019328069 0.011681823
0.0733147 -0.025443856 -0.005802442 0.0043894025 0.029455792 0.0029424322 0.07820728 -0.40869224
0.19524786 0.10058219 -0.40160987 0.42319426 -0.5924286 0.18230544 0.32116526 -2.678219
0.044954415 -0.044502065 -0.05389082 0.053896926 -0.010598894 -0.0136343315 -0.0154633485 -0.01569191
0.04174489 -0.06522515 0.2588812 -0.15149309 0.21135497 -0.42479622 -0.016385239 -0.036880612
-0.1264688 -0.17219262 -1.1172422 0.18197225 0.14017794 -0.549203 0.23020974 -1.0733752
0.29678148 0.06408309 -1.2070879 0.6202814 -0.111097634 0.43239394 0.5510492 0.22306924
0.2074359 0.78603995 0.8321997 0.09424058 -0.6648366 0.25729474 -0.29951462 -0.5410622
00000000: 22c1 a6bf caa6 a0bf e5fd d1bf cd57 54bf
00000010: 987d 31bf ca23 92bf 5636 0bc0 209e f7bf
00000020: 095c 22c0 bf7b 483d cdfa 7e3d 4288 adbe
00000030: 49e9 b5be 8ef3 aa3e c0fe f63d f44b b0bd
00000040: 2718 0f3f 333a 383e ec00 5a3c 65e2 82be
00000050: 79ef 17bf f876 863d 4d2c 39bf 6a6f 66bb
00000060: b900 e5be 82b6 f23d a48f cc3e 38d5 3dbd
00000070: 02f7 fc3c 341c 39bc a02c 2bba c2a3 d53c
00000080: 2032 fc3a 9d98 02bd 5749 083d 82af 3abd
00000090: 840d ffbe dbb0 1abd ebe9 0bbe aae2 f4bd
000000a0: abd3 893e 52b7 4cbf 8b54 d4bb 92cb 4cbe
000000b0: 0a53 71bf 4666 25bd 9035 51bd 3ddb 803c
000000c0: 5de9 48bd 0b0d 12bd f045 fcbc ad75 933a
000000d0: 0752 46bd b049 c1bb a6fb 403d b66c 2b3f
000000e0: 6d05 8e3e 947a 1b3f e6e7 aabf 3c3b 55bf
000000f0: c16f 953c 5d72 acbf 5a2b 1bc0 f4ce 04bf
00000100: c88c 4e3d 0690 10bf b7e5 01be e71a 113e
00000110: 4b20 c4bf 0059 b3be 26e6 a9bf 2ab8 babf
00000120: 9dcd 123f cd10 663f 45f0 a63e d473 873f
00000130: 24f1 02be 8e40 0fbe 8090 ad3e 65be 0dbf
00000140: 4514 7d3e e6c1 24bf 7ca7 aebf c082 c9bf
00000150: 79a0 b4be 6d06 3cbf ca89 94bf 21b3 45bf
00000160: 2042 00c0 6ff0 46bf f46f 2ebf b01d f23d
00000170: f4b9 d73e 630a 29bf 4773 0a3e cc00 00bf
00000180: 1b16 193f 3394 723e 6786 f2bf 17bb 493d
00000190: bdf7 533d f949 4d3d 9432 69bc 005b f139
000001a0: aef9 eb3c 0022 c1b9 409c 82bc ac7c 5f3c
000001b0: d8b7 f6bf 4702 993f 3f1d 463f 0a87 c53f
000001c0: f55b 833f 89d8 cfbf 23df 8a3f 39ac ee3d
000001d0: 3ac5 bdbf 2f73 1cbe 4265 7e3e 5a02 84be
000001e0: d39a 95bd ce30 e83a 5584 8c3b 2fd4 95be
000001f0: 6d99 7f3e 8dad 1d3e f747 2abf ea72 463e
00000200: 0373 bb3d 0eba bb3e 85b0 803e b3af c5be
00000210: 8ec7 273d 0ff7 8abd f5ae debc 479d 0bbf
00000220: a924 d2bf 376a 383f 685c dbbb 402f 85be
00000230: 1fb8 733f 8e59 723f 74f7 bfbe 37c3 b6bc
00000240: 3cc2 fa3e 5906 233f 57b4 18be f8f9 2a3f
00000250: 85f7 353f a48e 00c0 f778 e03c a993 0dbf
00000260: c099 903d bd0f eebe 16e4 9ebd aa17 e7bd
00000270: b00a 15bf b578 05be 4872 c2be 5f0d aebe
00000280: 9c48 d6bc 76d2 53bf 967c a5bd a556 963e
00000290: 4dc9 eebd 534f c83b 8d3f 61bd 2959 eebe
000002a0: a369 bfbc 130a 58be 1128 90be 964c 41be
000002b0: 6088 e3be 227e 3bbe 8321 46bf 314a 12bf
000002c0: ad0f d73d 4371 fabd 1e93 42bf d925 b33e
000002d0: f785 09be d82a 033e 5963 e9be ccfc 90be
000002e0: bde8 08bf fa6f 04bf 48e6 88be 2ee8 15bf
000002f0: 01c5 c2be 47dd 99be c041 ee3e 9a17 a53e
00000300: cc30 143d 32c2 033e 2fc2 54bf da56 c03e
00000310: 3bf0 64bf aa9a 11c0 e655 9e3c 1e65 3f3c
00000320: 0426 963d a26f d0bc 6922 bebb fad4 8f3b
00000330: 464d f13c d2d5 403b 232b a03d 1c40 d1be
00000340: 0eef 473e 09fe cd3d cf9f cdbe ebac d83e
00000350: 67a9 17bf 47ae 3a3e c66f a43e f167 2bc0
00000360: 1f22 383d cc47 36bd 9fbc 5cbd 06c3 5c3d
00000370: fca6 2dbc 8862 5fbc fc59 7dbc 528c 80bc
00000380: b1fc 2a3d c394 85bd 148c 843e 0121 1bbe
00000390: 706d 583e e47e d9be 563a 86bc 2010 17bd
000003a0: 0981 01be 4353 30be cb01 8fbf ef56 3a3e
000003b0: ce8a 0f3e 9198 0cbf 1abc 6b3e 5c64 89bf
000003c0: bef3 973e ff3d 833d db81 9abf c3ca 1e3f
000003d0: 2887 e3bd bd62 dd3e 8f11 0d3f 436c 643e
000003e0: 146a 543e ea39 493f 0a0b 553f 3501 c13d
000003f0: bb32 2abf 23bc 833e fb59 99be 0d83 0abf

conv.4.bias f4 [64]
-0.40487275 -0.44198525 -0.27085704 0.19753884 -0.10335717 -0.16310883 -0.1462636 -0.0017752184
-0.1627374 -0.08208397 0.14892483 0.15565962 0.07076098 -0.27040255 -0.19831064 -0.33372146
-0.101350084 -0.09746907 0.060831327 0.082281575 -0.7578918 -0.14467359 0.38661155 -1.1297456
-0.067133114 -0.059408028 -0.19496885 -0.007002937 -0.22226006 -0.013301775 -0.10891593 -0.5204632
-0.79517156 -0.31689432 -0.21476263 -0.2408069 -0.36265254 -0.34201536 -0.085189365 -0.050016493
-0.56652355 -0.20445599 -0.08271182 -0.22947228 0.025104502 -0.39345345 -0.1767168 -0.18948092
-0.040035516 0.18053667 0.31183589 -0.38790506 -0.14980245 -0.81188554 0.22179447 -0.21712379
0.047506616 0.21252395 0.054383043 -0.40401393 -0.31526712 -0.27785408 -0.113021836 -0.10803199
00000000: 7b4b cfbe e44b e2be c6ad 8abe 9f47 4a3e
00000010: edac d3bd 0006 27be 20c6 15be 72ae e8ba
00000020: a2a4 26be a41b a8bd c07f 183e 3c65 1f3e
00000030: 22eb 903d 3472 8abe f211 4bbe 8add aabe
00000040: a290 cfbd dd9d c7bd 452a 793d 3e83 a83d
00000050: 3205 42bf 5025 14be f3f1 c53e 819b 90bf
00000060: 167d 89bd d555 73bd eaa5 47be e578 e5bb
00000070: 2498 63be b0ef 59bc 510f dfbd 143d 05bf
00000080: 5d90 4bbf f93f a2be bcea 5bbe 1696 76be
00000090: 98ad b9be a31c afbe c377 aebd 18de 4cbd
000000a0: b007 11bf e95c 51be d164 a9bd c8fa 6abe
000000b0: f5a7 cd3c bb72 c9be 40f5 34be 4907 42be
000000c0: 48fc 23bd 9bde 383e f4a8 9f3e 7e9b c6be
000000d0: d065 19be bbd7 4fbf 171e 633e b355 5ebe
000000e0: 4c96 423d e19f 593e c1c0 5e3d eada cebe
000000f0: b16a a1be e442 8ebe fe77 e7bd e03f ddbd

fc.weight f4 [2, 64]
0.89889836 1.8094975 -0.08727689 -1.1308402 0.440363 0.102920905 -0.018299224 0.9059515
1.2852858 -0.008015356 0.3233428 1.0652332 -0.24587609 1.2292342 0.074810185 -0.629247
-0.1875072 0.051325843 2.484668 -0.22978917 0.6489912 -0.0064718523 1.5168853 -0.3607897
-0.54275787 2.1764138 0.014245511 1.1051404 0.033926245 1.4652455 2.4531364 1.4758401
0.3358443 0.93145615 0.03540815 0.07753293 -0.3045939 -1.2274916 -0.19471793 0.6220838
-0.99610114 0.19354096 -0.019622387 -0.0003764058 0.050218064 -1.0687133 -0.09502555 -0.02642995
0.81430894 2.209366 -0.2888823 1.4417007 -1.4877836 -0.42546064 0.43651932 0.039393194
0.07761869 -0.37349764 1.0066494 2.025999 1.7458769 1.2097822 -0.9157555 0.0094542755
1.4942809 0.20049027 -0.48726365 1.5960867 -1.6292053 -0.022184534 0.018253997 -1.8376005
0.04332976 -1.1898693 -1.4536163 -1.0257546 -1.8158386 0.19888471 -0.010206479 -0.47454464
-1.3857309 -0.0058512012 -0.51603156 0.99293405 -0.39890766 0.02503296 0.717357 -0.64472854
0.82010573 0.08970243 0.0141694015 -1.241647 -0.014752708 -0.5733443 0.08493834 -0.09009327
-0.15616569 1.2588284 -0.017203927 -0.010587576 -0.66178167 -0.44405174 -1.0953567 -0.015863873
1.9872658 0.029590854 0.021293623 0.020117184 -2.14755 -0.48515236 1.1328395e-05 -0.0014137723
0.022602148 0.28402898 0.48588178 -0.5768862 -0.1848175 -0.6736593 1.2178575 0.01758176
1.651965 1.8695785 1.1119585 0.046030723 -1.1217006 -0.40093654 0.12279433 0.027888801
00000000: 341e 663f 9d9d e73f 3abe b2bd 5fbf 90bf
00000010: 4277 e13e 32c8 d23d 41e8 95bc 70ec 673f
00000020: 3f84 a43f d752 03bc 308d a53e 9059 883f
00000030: f1c6 7bbe 8c57 9d3f 1536 993d 5516 21bf
00000040: e301 40be 0c3b 523d cd04 1f40 da4d 6bbe
00000050: 4a24 263f d511 d4bb 4c29 c23f 6db9 b8be
00000060: 2ef2 0abf 5d4a 0b40 0166 693c 3e75 8d3f
00000070: 3ff6 0a3d 2a8d bb3f 3000 1d40 54e8 bc3f
00000080: c9f3 ab3e e973 6e3f 2308 113d 96c9 9e3d
00000090: bbf3 9bbe 721e 9dbf 2364 47be e240 1f3f
000000a0: 7c00 7fbf 9a2f 463e 21bf a0bc 5558 c5b9
000000b0: 75b1 4d3d 99cb 88bf c19c c2bd 9f83 d8bc
000000c0: 8d76 503f 4166 0d40 61e8 93be a689 b83f
000000d0: b16f bebf fad5 d9be 767f df3e c25a 213d
000000e0: 8cf6 9e3d 153b bfbe e3d9 803f f8a9 0140
000000f0: e578 df3f 25da 9a3f f46e 6abf 1be6 1a3c
00000100: 9944 bf3f 524d 4d3e 9f7a f9be 924c cc3f
00000110: cd89 d0bf 57bc b5bc 6889 953c 7e36 ebbf
00000120: 8c7a 313d a34d 98bf 1910 babf ed4b 83bf
00000130: 666d e8bf 6fa8 4b3e 1339 27bc 84f7 f2be
00000140: a15f b1bf 6fbb bfbb a51a 04bf ed30 7e3f
00000150: a03d ccbe ec11 cd3c b5a4 373f ee0c 25bf
00000160: 73f2 513f e8b5 b73d c726 683c 4aee 9ebf
00000170: 58b5 71bc b1c6 12bf 27f4 ad3d d282 b8bd
00000180: e6e9 1fbe 4a21 a13f 40ef 8cbc 8377 2dbc
00000190: 866a 29bf c05a e3be a634 8cbf f4f4 81bc
000001a0: ba5e fe3f 8568 f23c f76f ae3c cbcc a43c
000001b0: 7671 09c0 e465 f8be 160f 3e37 544e b9ba
000001c0: 2428 b93c 3f6c 913e 7fc5 f83e d0ae 13bf
000001d0: cc40 3dbe f074 2cbf c1e2 9b3f a007 903c
000001e0: 9773 d33f 594e ef3f a854 8e3f b68a 3c3d
000001f0: e393 8fbf 8e47 cdbe 987b fb3d 0e77 e43c

fc.bias f4 [2]
0.27013296 0.16357844
00000000: de4e 8a3e 1b81 273e
